Assets/brains/CarAI17.onnx (onnx, 96846 bytes, 9 tensors)

discrete_act_size_vector f4 [1, 2]
00000000: 0000 0040 0000 4040
2.0 3.0

network_body._body_endoder.seq_layers.0.weight f4 [128, 40]
00000000: 85e6 67be 1639 113e 15a0 db3d 9c44 13be
00000010: b781 813e cb3e 9e3d 0b83 3abe a8df 5d3d
00000020: 4aaf 273e 891d 013e b450 78bd b832 92bd
00000030: b777 1f3f 4bd1 05bf a610 ccbe 46a1 10bd
00000040: c570 26bd 91c8 c3bd 94d3 433d ecf4 813c
00000050: cbe8 803e 51e0 ad3c 5945 05be b2a2 fe3d
00000060: ab5c f6bb e49b 963d 62aa 8d3d a8d1 e0bd
00000070: ab70 e33c 577a 1b3e 3edc 82be f8a1 3cbe
00000080: 5205 f0bc aec2 193c 19d6 083e 2415 d8bd
00000090: 2475 043e c144 09be 47d4 f4bc e18c 673d
000000a0: c64b cebc 616c 88bd de92 dabd 5799 cf3e
000000b0: 0f54 f23c 072d d5be a495 90be 10d8 5e3e
000000c0: 8a35 69be a764 21be 0673 3cbd 4be3 41be
000000d0: 31c1 093e 35b4 76be 03d3 8b3e e9d7 003d
000000e0: 403b f9bd d0b5 c5be 6a23 9ebc 0be0 2b3d
000000f0: 46ce db3e 2524 de3c a120 1bbe e648 10be
00000100: bba0 95bd 8c2e 47be cc8b 063c 9353 39be
00000110: 2ee1 a7be 2004 733e a3cf e6bd c9e3 8bbd
00000120: b0c9 5bbd 8ccc 81bd b8dd b3bd 2f12 7d3e
00000130: 745a 41be 42fa 493e b04d 96bd 98b2 0cbe
00000140: 2a21 a03d 1b5e a0be 636d 96be 995b a6be
00000150: e711 3cbd a4ea 28be 929c c8bd 9a5c 8a3e
00000160: f258 a2ba a000 8b3e 6ed7 dfbd ab44 15be
00000170: 7bf2 a13e 0b5e 143e 8e65 82bd 52a0 60be
00000180: ef5f a9bd 1de4 7c3e 85cd dabd 0946 a8bd
00000190: db22 fabd 2a2f fe3d f942 103c dd39 37be
000001a0: cc11 c1bc 3356 853d 408c 52be 6ec2 95be
000001b0: c557 38bd 02b8 e03d 4191 b5bd f1f3 8f3e
000001c0: a301 9b3c 26eb 75be 388a 3abd b882 d33e
000001d0: da55 413d bdfd ecbd 980e 1c3e 0de8 673e
000001e0: e6bc 0c3d b0d7 c03c db7d f4bd 67af 51bd
000001f0: 86ce 893e 7860 5a3e 76e7 853b bac9 aebd
00000200: 16b5 3c3e 67e0 dfb9 c58a 28be fa6c 9c3d
00000210: 5e19 1cbe 2fb7 b63e 1d73 783d df50 a03e
00000220: 4eae 753e 6741 a9bc eb43 773d 6d13 763d
00000230: 91a4 26be 9329 00be 47eb c6bc bd78 ab3e
00000240: 2b3c 883e ac25 113e 77a8 063e 05c9 413d
00000250: a9ba 5d3d 8fc8 003e 6ffa 89bd c168 a23e
00000260: fd20 5b3e eb68 76be ecdd 2c3e 191c 75be
00000270: 0a06 2fbc 68f2 04be 79f4 cfbd ebac afbe
00000280: 6ab2 45be f704 08bd 127a 12be dbc6 fe3c
00000290: 0edd e33d fd5b 483e b0e6 2f3e c135 b6bd
000002a0: cbce 393e 428a edbd f51e 47be 5a89 eb3d
000002b0: 9d71 f7bc 9f20 c7bd aebf a73e b233 203e
000002c0: 836a 813c 99e1 7b3e 4073 883e 4b0e afbd
000002d0: 912c 12bf 6fa4 a1bc 54c7 9d3d 3260 c63e
000002e0: 30d0 f23e 45b4 51be 2643 4dbd 89e4 95be
000002f0: 3499 6cbc 62fb c63d 6e14 c23c 7914 9f3e
00000300: 4f4b 903e cf47 a3be 6e87 a03e a02e 0f3e
00000310: 1ca4 af3d 58dd 3abd 8421 9c3e 086b 0abd
00000320: d27f 8a3d bdc3 a0be f6c3 6dbe b950 a83e
00000330: d3e0 6a3e 4992 023e 5f35 763e fd32 db3d
00000340: a7d4 e83d ba07 db3d 23df 25be 797b e73d
00000350: cdef 4e3e 6cf8 903e 84df 203e ea22 44bc
00000360: dce2 98bd bf0f 173e 86e8 82bd 96d7 4fbe
00000370: 89b4 cbbe 483c f4bc 0a62 bebd 858f 6c3d
00000380: e3ff d2bd f3e4 17be e005 fcbd 0d79 e93d
00000390: 727f 253e 120b 93bd 4604 f8bd d67c fabc
000003a0: 88d4 00be e24f 0b3e c7a5 d0bc 283e 31be
000003b0: b492 bbbc d384 13bf 97e4 77be c8a1 313c
000003c0: d980 0f3e df39 6cbd 51b6 dfbe 0395 40be
000003d0: 89e6 08bd 060c 4cbd 8dd7 a839 0d94 f23d
000003e0: c2a8 ddbc da1f 903e 1548 c03d 8771 65be
000003f0: a02e 33be 1f9c 0e3e 0bb2 7239 7a67 b3be
-0.2264653 0.14181933 0.107238926 -0.14381641 0.25294277 0.077268206 -0.18214051 0.054168373
0.16375461 0.12608923 -0.06062384 -0.0713858 0.62292045 -0.5227248 -0.39856452 -0.035310052
-0.04063489 -0.095597394 0.0478092 0.015863858 0.25177607 0.021225126 -0.13014735 0.124333754
-0.007518371 0.073539525 0.069172636 -0.10977489 0.027763685 0.15183388 -0.25558656 -0.18421161
-0.029299412 0.009384794 0.13362922 -0.10550907 0.1293531 -0.13405134 -0.029886378 0.056530837
-0.025182616 -0.06661297 -0.10672544 0.40546677 0.029581098 -0.41635916 -0.28239167 0.21762109
-0.2277433 -0.15761052 -0.046008132 -0.18934362 0.13452603 -0.24092181 0.27309427 0.031455908
-0.12169504 -0.38615274 -0.019303996 0.04196171 0.42930812 0.027116844 -0.15149166 -0.14090309
-0.073060475 -0.1945135 0.008212041 -0.18098287 -0.32788986 0.23732042 -0.11270072 -0.06830556
-0.05365914 -0.06337842 -0.08782524 0.24713968 -0.18882161 0.19724372 -0.073390365 -0.13740003
0.078188255 -0.31321797 -0.2938033 -0.32491758 -0.04591551 -0.16495758 -0.097954884 0.27023774
-0.0012386127 0.27148914 -0.10929762 -0.14576976 0.3163031 0.14489 -0.06367026 -0.21936157
-0.08270251 0.24696393 -0.10683731 -0.08216483 -0.122136794 0.124113396 0.00880503 -0.17893167
-0.023568057 0.06510582 -0.20561314 -0.292499 -0.04500558 0.10972597 -0.088655956 0.281158
0.018921679 -0.24015483 -0.045541972 0.41310668 0.047201015 -0.11571834 0.15239942 0.22647114
0.034359835 0.023540348 -0.119380675 -0.051192667 0.26915377 0.21325862 0.00408643 -0.0853457
0.18428454 -0.00042701067 -0.16459186 0.07637973 -0.15244052 0.35686633 0.060656656 0.313117
0.23992273 -0.02066107 0.060367506 0.06007712 -0.16273715 -0.1251586 -0.02428211 0.33490553
0.26608405 0.14174527 0.13150202 0.047310848 0.05413309 0.12576507 -0.067372195 0.31720546
0.21399303 -0.2406346 0.16881531 -0.239365 -0.010682592 -0.12983096 -0.10154051 -0.34311613
-0.19306341 -0.03320786 -0.14304379 0.031100681 0.11126147 0.1956634 0.17177844 -0.088969715
0.18145292 -0.11598636 -0.19445403 0.11500807 -0.030205542 -0.09723019 0.32763427 0.1564472
0.015797859 0.24597777 0.2665043 -0.08547648 -0.5709925 -0.019731728 0.077040344 0.38745266
0.4742446 -0.20478924 -0.050112866 -0.2927592 -0.014440823 0.09715916 0.023691382 0.31070307
0.28182456 -0.31890723 0.31353325 0.1398263 0.08576223 -0.045621246 0.3049432 -0.03379348
0.06762661 -0.31399336 -0.23219284 0.32874086 0.22937326 0.12751116 0.24043797 0.107030846
0.11368685 0.10694833 -0.16198401 0.113028474 0.20208664 0.2831453 0.15710264 -0.011971215
-0.07465145 0.147521 -0.063920066 -0.20297083 -0.39786175 -0.0298139 -0.09296043 0.05775406
-0.10302713 -0.14833431 -0.12305808 0.11400042 0.16161898 -0.07179846 -0.1211019 -0.030577105
-0.12581074 0.13604692 -0.025469674 -0.17308867 -0.022897102 -0.5762455 -0.24208294 0.010841794
0.14013995 -0.057672378 -0.43693784 -0.18806843 -0.03342298 -0.049816154 0.00032204055 0.11844645
-0.027058009 0.281493 0.093887486 -0.22406588 -0.17498255 0.13926743 0.00023145245 -0.35039884

network_body._body_endoder.seq_layers.0.bias f4 [128]
00000000: 884c 303d 067e b6bc 425c eabc c033 9d3d
00000010: 8a24 bb3c 08e3 653d 7e0f 2ebc 8a49 a43c
00000020: ed6b 0d3d c3fd adbc 125d 37bd 35d3 443d
00000030: 9b02 fa3d 727a 9e3c 0c12 393d 6aac 693d
00000040: 9a03 e03c 9a56 85bb 9c3b ae3d cbf1 03bb
00000050: 02df 06bb 24ae fb3c 2559 513b 3bd8 893d
00000060: 7d3a 6abd 31a5 b03b 13c1 c03c f484 563b
00000070: b124 373d 21ea 09bc bdca 7a3d 0852 a63c
00000080: 840c 1e3b bb1a bc3a dc9b bbbc 9573 0c3d
00000090: a19f 4ebc 8b9f 403c 0396 bfbd efdb 553c
000000a0: d36a 5bbd 85b7 923d d09b 023d 87cf 10bc
000000b0: 52ea 8e3d febf 0e3d e715 233d 1df2 2c3c
000000c0: 8453 a43d f690 903d a6e2 6bba 3dbb fdbc
000000d0: 516d 523b 566c 4fbb 64b1 153d 654f 853c
000000e0: 892f 783d 9cc1 7b3d 6fac 0c3d e86a b13c
000000f0: dabd 5b3d fc1d ba3a 042b 023d ea3c f33b
00000100: 16b4 5a3d 0194 c83c 7a09 5b3d 90a3 ed3c
00000110: 3a17 173d dfbe 7d3d 9a06 443c d2c9 cfbc
00000120: ed75 793d 9283 e63c f973 613d 0f5e 853d
00000130: 427d 993c 6df3 b23d 5b1b af3d 4a70 c33c
00000140: b5df 21bd 313b e23b 7a7e b5bc 6c38 9fbc
00000150: 926c 62bc 68c3 e83d a88d 113c 36ae 453c
00000160: df58 b63d b406 c2bd b40d af3d 9d0c 803d
00000170: dc3d 8dbd 1051 78bd f84b d2bb a5df 433d
00000180: e176 073c c264 b23c b425 9d3b 5855 e73c
00000190: d773 82bc beef 0ebd 619d 2f3d 68fc 95bb
000001a0: 4f03 e43c d48d af3d 79b9 f33c af25 803c
000001b0: acd6 5ebd 0795 ee3c 70cf 3d3b f1c9 ab3d
000001c0: d807 ea3c 6c34 273d c4f7 77bc c8a3 1a3c
000001d0: ade3 36bc 4de7 833d 5ece 64bc df4a bf3c
000001e0: 6faf b33c 57bc 01bc 2817 253c ddc4 063c
000001f0: 564d 643d a3d4 ad3c 90f2 05bc fe31 393d
0.043041736 -0.02227689 -0.028608445 0.07675886 0.022844572 0.056124717 -0.010623811 0.020054597
0.034526754 -0.021239167 -0.044766493 0.048052985 0.12207528 0.019345496 0.045183226 0.057049192
0.027345467 -0.0040691616 0.08507463 -0.0020133134 -0.00205797 0.030722685 0.0031944003 0.06730696
-0.057184685 0.005390786 0.023529565 0.0032733055 0.044712726 -0.008417637 0.061228503 0.020302787
0.0024116347 0.0014351228 -0.022901468 0.034289915 -0.012611301 0.011756788 -0.09354784 0.013052925
-0.053568672 0.0716391 0.031886876 -0.008838541 0.06978287 0.034851067 0.03981581 0.010555771
0.08023742 0.07058899 -0.0008998312 -0.030973071 0.0032108615 -0.0031650267 0.036546126 0.01627321
0.060592208 0.061463937 0.034344133 0.021657422 0.053647853 0.001419961 0.031779304 0.007423033
0.0533944 0.024484636 0.053475834 0.029008657 0.036887385 0.061949607 0.011964465 -0.02536479
0.06090348 0.02813891 0.05504224 0.06512081 0.018736485 0.08737836 0.085501395 0.023857255
-0.039519984 0.006904029 -0.022155035 -0.019436084 -0.0138198305 0.11365396 0.008883871 0.012065461
0.089036696 -0.09473935 0.085475355 0.06252406 -0.06896564 -0.060624182 -0.0064177476 0.047820706
0.008268089 0.02177656 0.0047957543 0.028238937 -0.015924377 -0.034896605 0.042874698 -0.0045772083
0.027833609 0.085719734 0.029751526 0.015642969 -0.054403946 0.029123796 0.0028962754 0.08388127
0.028568193 0.040821478 -0.0151347555 0.009438463 -0.011162681 0.064406015 -0.013965217 0.023351131
0.02193424 -0.007918439 0.010076322 0.008225647 0.055737816 0.021219557 -0.008175507 0.045213692

network_body._body_endoder.seq_layers.2.weight f4 [128, 128]
00000000: fc52 c2bd 4add 91bd 0dfb 0f3e 84fa 873e
00000010: 0bdd c53c 277c cb3d bf63 62bd 847c 263e
00000020: f6ff 4d3d e116 b7bd dc0f 18be cadc 803e
00000030: 2600 153e 02c9 083e f774 953c af7c 833e
00000040: 549e 023e 54cc 7f3a e589 443e cf16 d1bd
00000050: 0e25 b33d d1d7 d53b 464f 043e 1715 313e
00000060: e094 173d b2f5 95bd 9354 f2bc ff41 eabc
00000070: 2d70 35be ecc0 29be 4b94 6f3e 23c3 5b3e
00000080: d3d0 4c3d 1ea7 a8bc 8fcd 0ebd c1f2 9d3d
00000090: 44f7 3e3c 6de1 50be c345 f7bd c845 5abe
000000a0: d03d 9abd bc27 41bd 755d aa3d f940 903c
000000b0: 8bf1 e53c d3de 913d dba1 523e 524b 973d
000000c0: 170b 08be c7f5 27be aa4d a03d e4ad 543d
000000d0: 731e fa3d ef7f 56be 5289 91be ea88 0d3e
000000e0: ae5d 9e3e 0ec0 9fbc ff60 273c 6c11 993d
000000f0: 4271 403e d760 b4bd 4238 c2bb 8426 c6bd
00000100: 23a0 363e d51d bd3d 9e4d bf3c caaf a5bc
00000110: 8e80 07bc 156c ff3d 1f41 523e 25e7 3dbd
00000120: 897e 9c3c 9af4 fabc aaab b23d 3d9e 223e
00000130: faa1 60be eded 2c3e a339 f83d f977 b63d
00000140: 0978 813e 6e39 183e 599c c13c b41f e03d
00000150: a6de a43d 0239 873e af80 5dbe f767 6d3d
00000160: 3c44 debd 9d96 f6bd 6356 093e 4976 c13d
00000170: 91c6 31be 62e0 45be 2076 3bbd 4a7e fcbd
00000180: 96fb 523d 9f3c 123e 20bc 263e 1ec6 5f3e
00000190: 45b7 26bd 516f 9abd 7525 bdbc 3cfb adbd
000001a0: 81b9 623d b293 f3bd 3254 ce3c f0e1 07be
000001b0: e7e5 1c3b bf97 e23d 7877 e33d 49fa c13d
000001c0: 2513 993c 4c69 783d fbd4 d8bd b1ae 8fbd
000001d0: a74c 7ebd 5fe5 7e3e 6056 943d ca9d 67be
000001e0: e45b b7bc be37 3c3e 8c8a 2bbe 6bd7 c83d
000001f0: 68fa 183e 306a 73be f8d8 5c3d 5614 423e
00000200: d580 a0be 8296 0fbd de5c e7bd 636f 63bd
00000210: a8e2 ac3b 43fd 0d3e a41f 763e f112 083e
00000220: 2235 3d3e a7fa ce3d e23e 173e e05e d1bc
00000230: d95b 5d3e fcc5 783d c477 82bd 87dc 1dbc
00000240: ad4c 573d 4093 f93c 1761 033d 9e43 3e3c
00000250: e031 16bd ccb5 b13d 99c5 cf3d f985 283e
00000260: df9d 033e 6ae7 5b3e 0efa 2fbe cf9e 103e
00000270: 1508 85be e452 a83c 2095 053d 6b60 033e
00000280: c2ef c73c fa42 e8bd c8e5 6cbd ea99 413e
00000290: 8e29 273c a3ab ba3d 0751 f4bd 4232 72be
000002a0: bb78 bfbd 5e8e e13d da65 263d 0ff4 02bd
000002b0: 4402 02bc 9924 173e 2fca 3c3e 8012 dbbd
000002c0: 0a18 023e 02f6 213e 5b21 f5bd aac7 33bd
000002d0: 414a 00be 555a f4bd 054f 59be 7d17 9fbc
000002e0: 21f7 8bbc 2521 efbd 4dd4 9ebd 2c9f a13d
000002f0: 3546 e83d 3398 75be b4ed 843d e9d2 953c
00000300: fbf7 8f3d e018 0e3e 1fe6 ed3d d2f7 56bd
00000310: b951 623d d412 f2bd ffa3 b5bc 8fe6 dfbb
00000320: 4bc4 793e 3089 993e ef20 29bd cec3 10bd
00000330: b430 a0bd 90a1 103e 5e5d a13d 101d 1e3e
00000340: 69d2 1a3e 8e6f 153b aa95 1fbd 45f4 43bc
00000350: cff4 bbbc 1d6b a03e fd66 e5bd ccfd 773e
00000360: c4e1 063d c5a2 ccbd f1a3 babd e5ed b13e
00000370: 5830 07be 3cd8 cdbd 88bf 77be 9dad 8b3e
00000380: e6db be3d 8f26 2bbd e8fc b13d 6b46 b53c
00000390: 9ddc 963d 37ed c93d 9106 78bc 904d aebc
000003a0: 0026 013d 6c34 c0bd d20e e2ba b0b6 e2bd
000003b0: e944 493e 63ca e6bd 9d18 1ebd 7df4 edbc
000003c0: c610 aebc 9652 813c 3a37 07be 409d 40be
000003d0: 2942 e73d 3800 583e b887 9e3d 207e b73d
000003e0: 9797 ddbc 8444 eebd e832 d33d 82ff 053d
000003f0: 4947 ff3d f31c 0abe fb40 3fbd 290d 213e
-0.09488484 -0.07122286 0.14060612 0.26558316 0.024153253 0.099357896 -0.055270907 0.16258436
0.05029293 -0.08939911 -0.148498 0.2516845 0.14550838 0.13357928 0.01824425 0.25681064
0.1275571 0.0009757925 0.19193228 -0.102094285 0.08747302 0.0065259715 0.12920865 0.17293201
0.037007213 -0.07322253 -0.029581344 -0.028595923 -0.17718573 -0.165775 0.23396413 0.21461158
0.050003838 -0.0205875 -0.034864005 0.07712317 0.011655632 -0.20398493 -0.12073853 -0.21315682
-0.07531321 -0.047157034 0.08318607 0.017609106 0.028069278 0.071225785 0.20569555 0.07387413
-0.1328548 -0.1640235 0.07827313 0.051923648 0.12212839 -0.2094724 -0.2842508 0.1382176
0.30930847 -0.019500758 0.010215997 0.07474026 0.18793204 -0.08807533 -0.0059271166 -0.09675315
0.17834525 0.09234206 0.02335244 -0.020225424 -0.008270396 0.12471787 0.20532654 -0.046363015
0.019103305 -0.030634213 0.087241486 0.15880676 -0.21936789 0.16887636 0.12120368 0.08909602
0.25286892 0.14865658 0.023634123 0.10943547 0.08050279 0.2641068 -0.2163112 0.057960477
-0.108528584 -0.12040446 0.1341186 0.09446389 -0.17360903 -0.19323877 -0.04576695 -0.12328775
0.051509462 0.14280938 0.16282701 0.2185292 -0.040702123 -0.07540763 -0.02308915 -0.08495185
0.05535269 -0.11893405 0.025186632 -0.13269782 0.0023940743 0.110640995 0.11106771 0.09471566
0.018685887 0.060647294 -0.10587498 -0.070157416 -0.06208482 0.24892186 0.07243037 -0.22618786
-0.022382684 0.18380639 -0.1675207 0.09806713 0.14939272 -0.23770976 0.053917855 0.1895307
-0.3134829 -0.035055645 -0.1129701 -0.05552615 0.005276043 0.13866143 0.24035507 0.13288476
0.184773 0.10106402 0.14770082 -0.025557935 0.21617068 0.060735688 -0.063705 -0.009635097
0.052563358 0.030465722 0.032075014 0.011612801 -0.03666866 0.08677253 0.10145111 0.16457357
0.12853192 0.21474996 -0.17185232 0.1412308 -0.2598273 0.020547338 0.03261292 0.1282975
0.024406318 -0.113409 -0.057836324 0.1890637 0.0102027785 0.09114768 -0.11929517 -0.23651984
-0.093491994 0.110134825 0.040624477 -0.031971034 -0.0079351105 0.14760055 0.18436502 -0.10696888
0.12704483 0.15816501 -0.11969253 -0.043891586 -0.12528326 -0.11931292 -0.2122155 -0.01942038
-0.017085614 -0.11676244 -0.07755337 0.07891688 0.11341516 -0.2398384 0.06490651 0.018289046
0.070297204 0.13876677 0.11616158 -0.052482434 0.055253718 -0.118199974 -0.022172926 -0.0068329046
0.24391286 0.29987478 -0.041291174 -0.035342984 -0.078217894 0.14124131 0.078791365 0.15440774
0.15119328 0.0022802087 -0.03896109 -0.011960094 -0.022943882 0.3133172 -0.11201284 0.2421791
0.03293015 -0.09991983 -0.091133006 0.34751812 -0.13202035 -0.10051009 -0.24194157 0.27280894
0.09319286 -0.04178482 0.08690816 0.022128304 0.073662974 0.09859698 -0.015138284 -0.021277219
0.03153038 -0.09384999 -0.0017246848 -0.11070001 0.19655193 -0.11269071 -0.03859769 -0.029047245
-0.021248233 0.01578645 -0.13204661 -0.18809986 0.11291916 0.21093833 0.0774073 0.08959603
-0.027049823 -0.11634162 0.10312444 0.032714374 0.124647684 -0.13487606 -0.04669283 0.15727676

network_body._body_endoder.seq_layers.2.bias f4 [128]
00000000: 2b9f 823d ba3c 613d 5e25 3d3c eb75 083d
00000010: 9193 623b be40 9abc 9853 163c f65b 293d
00000020: 0f55 90bb 2eb9 443b 8f6b 493d d13e 64bc
00000030: 44c5 4f3d d8e5 213d 6971 9c3d b4f5 b63c
00000040: 40df cd3c bd31 3cbd 6cc3 143d a125 753b
00000050: 3a99 643d de42 a53c 2693 6d3c 997d 853d
00000060: c47e 81bb 7d8e 7a3d 315b 2a3d db31 78bc
00000070: b94b df3c 9f03 6e3d a356 9abc 51a8 e33c
00000080: 9203 243d c45b 03bc d77f 75bb 0e88 583d
00000090: 930e 453d 3986 023d b177 cabb 5288 223d
000000a0: e3ea d23c b783 7f3c 9a00 d03c 1b46 b23d
000000b0: 5e83 113d ea07 e43b 83fa f23c 24bd 7aba
000000c0: 21ee 673d 488c be3c 24a1 833d fe06 0a3c
000000d0: bc64 de3c 20ec 3b3d 2726 f53a ae8e 7eb9
000000e0: c650 043d 536a 793c c0e5 6e3c 0076 64bc
000000f0: a703 a5bc 6974 c7bc 0651 7f3d e52e 01bc
00000100: 5f51 c9bc a970 f1bc 88d3 443d 0887 60bc
00000110: 3a9d 853d eea6 4f3d 8a15 613d 0c3c ce3a
00000120: d1d1 c13c 8b60 30bb b5a8 2d3d d551 7f3d
00000130: c5bc 0f3d 4794 5b3c 065e 413d 68ad 553d
00000140: 5db3 b3bb 41c0 df3c 095b 85bb bd5f 203c
00000150: a0cd 5c3d dd4e 9a3d 6ae2 323d 41aa 0f3c
00000160: 3776 6d3d e4b6 5d3d 6d0e 483d da59 103d
00000170: 9744 0a3d d137 ea3c 9ac2 bcbc b18d 6d3b
00000180: bedb 323d 5f58 323d b6c5 39bd 68dd 8c3d
00000190: 9b82 8a3d f604 273b 3ab5 f83b 90fc 533d
000001a0: 02d8 743d 4193 fc3c 8e0b bebc 1516 433d
000001b0: 4d2e 1b3d fbb4 483d 619e 3f3d ed2f 8fbc
000001c0: 6537 633d fcea 463d 0ff0 7a3d 83c2 ab3a
000001d0: 4606 833c bef2 d33c 53fd 6f3d 3fd9 3b3d
000001e0: df7a 303d 241b 8ebc 6ce2 173b 7006 e93b
000001f0: 281e d9bc 201f 433d 3736 823c d1b9 263c
0.06378015 0.054989554 0.011544554 0.03331558 0.003457282 -0.0188297 0.009175204 0.041347466
-0.004404671 0.0030017602 0.04917484 -0.013930992 0.050725237 0.039525837 0.07638819 0.022333957
0.025130868 -0.04594587 0.03631918 0.0037406462 0.05581019 0.020173486 0.014500415 0.065180965
-0.003951879 0.061171044 0.041590873 -0.015148605 0.027257787 0.058108922 -0.01884014 0.02779022
0.040042467 -0.008017484 -0.0037460232 0.052864127 0.048109602 0.031866286 -0.006178819 0.039680786
0.025746768 0.015595368 0.025390912 0.08704778 0.035525672 0.0069589512 0.029660469 -0.00095649273
0.05662358 0.02326025 0.064272195 0.008424519 0.027147643 0.045879483 0.0018703387 -0.0002427648
0.032303594 0.015223104 0.014581144 -0.013944149 -0.020143343 -0.0243475 0.06233313 -0.007884716
-0.024574934 -0.029472666 0.048053294 -0.013704069 0.06524129 0.050696306 0.054952182 0.0015734448
0.023659619 -0.0026913013 0.04239722 0.0623339 0.035092134 0.013402051 0.04720881 0.052167326
-0.0054840283 0.027313353 -0.00406969 0.009788451 0.053907037 0.07534573 0.043672957 0.008768619
0.057974067 0.054129496 0.048841882 0.03524194 0.03375682 0.028591068 -0.023042012 0.0036247785
0.043666594 0.04354131 -0.045354567 0.068781674 0.06763192 0.0025485135 0.0075899633 0.051754534
0.059776314 0.030831935 -0.02319887 0.04762848 0.037885953 0.04900072 0.0467819 -0.017478907
0.05547275 0.048563942 0.061264094 0.0013104234 0.015994202 0.025872584 0.0585912 0.04586148
0.04308593 -0.017346926 0.002317573 0.007111363 -0.026503637 0.047637105 0.015894992 0.010176138

action_model._discrete_distribution.branches.0.weight f4 [2, 128]
00000000: 4c93 14bc 49a2 15be 2bdd 3b3b 2266 33be
00000010: 75aa 273e efe4 2dbd 4c51 99bd c7cc c23d
00000020: dc8b a63d d762 01bc fcfa 48bd 4930 08be
00000030: 3b2e 80bd 972d ffbd f821 aabc 2be7 e43d
00000040: 7f95 34be 5b3e e0bd 0500 5d3d 0f74 48bc
00000050: 9246 3f3c 081d a3bd 16f2 0dbe f529 18bd
00000060: 0071 91bd f84e 22be 8018 1c3e df93 cfbd
00000070: e36b 903b 04af 5dbc d42f e7bd 48c8 55be
00000080: b030 febc 0512 14bd d920 1cbe 4a74 4c3d
00000090: 23f9 4f3e 1c0c 5abc 7bf6 523d f377 1a3d
000000a0: c154 113d e039 023e 6ec1 1fbe f0ea 49bd
000000b0: 971f 25bd 0ff4 db3d c09d 873d 1678 bebd
000000c0: bee4 cebd ac54 683d 5210 04be 964a 0cbe
000000d0: 7005 223e 6f95 593e 5455 eb3d bf43 003d
000000e0: 850c 9ebc 938d 023e 42f9 993d 3b7c f7bd
000000f0: 443f c5bd aac7 d2bd c8f2 55bd 29e6 e73b
00000100: 52f9 93bc 71be 04be 157a 5ebd 907d f3bd
00000110: b758 83bd e0b1 4d3e d1dd bcbd 6797 39bd
00000120: 90e0 a03d b675 07be 50b3 943d 8209 6b3e
00000130: fec5 05be a8ad 22be 24e5 c13d 1599 243e
00000140: 8c79 14be f4cf 97bd 958e 22bd 5439 1739
00000150: cbdd 3dbb d11d 28be d4c2 193e 13dd b9bc
00000160: 9186 56bc d8fb 02bd 500f 70bd 828c 273d
00000170: 8a7e c43d 066e 053d 334d 953d 353a 8d3b
00000180: 9627 263e ea2c 4a3e 9b05 a7bd 44dd 1ebe
00000190: 7416 b8ba 8421 91bc 6a9d aabd 9d49 d63c
000001a0: 0f5e c6bd 0a85 ceba a716 02bd 33c8 633e
000001b0: 14f1 523d d939 37be f2ee e8bc dfdc 02be
000001c0: 9bf1 583a 59e4 3cbe ceee 85bd 792e 1d3e
000001d0: 1c07 1fbe 50e4 50bc 8174 7ebc a385 2a3e
000001e0: b1cf 743d de1a dc3d ab82 a4bd 0e87 863c
000001f0: c27b a6bd e256 933d c2f9 ed3d 3127 ffbd
00000200: d4da 203b 3582 0d3e 06b6 01bc 3edd 3a3e
00000210: 54fd 1bbe 8484 3d3d 1fa3 8e3d 47a0 a2bd
00000220: 0e1b cfbd cea3 ad3c f67a 273d 1cff 043e
00000230: 77f4 733d 5d55 093e 8d3d a13c f6d3 edbd
00000240: 3d76 3c3e b827 d53d b453 19bd dc9c ef3c
00000250: 275d 13bd 1915 783d fd48 043e b7b1 663d
00000260: b4b4 933d 0ee1 383e 2864 28be 039d dc3d
00000270: 6b12 58bb d51f a33c dcff f83d 5ceb 553e
00000280: 018d 333d aba7 de3c 0e67 133e d868 40bd
00000290: 35ee 4abe f5e5 2f3d 2bc3 46bd 88c1 1dbd
000002a0: e39b 94bc 50fc 0dbe e739 303e 3d3b 7e3d
000002b0: 2bc3 c13c e50a d8bd 6027 a3bd 9bb1 d53d
000002c0: f080 ed3d 482b 4dbd 25ac 0f3e c352 123e
000002d0: bc16 33be 0718 5bbe 0eee 0fbe 73bb a2bc
000002e0: 3842 aaba e407 0abe 7847 94bd 4b3a f53d
000002f0: 660e b63d d719 d73d a65d 1e3d f558 70ba
00000300: 80fa 7b3c 6b63 cb3d 4116 943d 6436 043e
00000310: f046 7c3d 9a22 43be 1740 da3d c5a9 253d
00000320: b59b b3bd 6fe0 ff3d 1cad 8fbd 7e7e 72be
00000330: 9e44 093e 1327 1f3e f9c5 eabd 0fb1 2cbe
00000340: 5e18 2b3e 2e8a aa3d 31f0 fb3c 2bb6 1b3c
00000350: 720b 0c3c 9f39 243e 55ee 22be 72de f23c
00000360: e0c7 2f3c a4ad ec3c 1dbe 833d 200b 19bd
00000370: 7c50 a0bd 2603 f0bc 04d5 94bd 5ae3 aabc
00000380: e1a8 34be f23a 52be 1325 9c3d f869 063e
00000390: 5446 a23c e3b5 83bb 1acb d83d 9318 85bb
000003a0: 681e a13d 172f 2f3b 1a13 293d 6957 66be
000003b0: d44b 5dbd 7d6c 393e c75c cc3c 8478 fa3d
000003c0: 76f8 c73b f33f 373e 70e0 923d 088c 15be
000003d0: ce39 163e 4338 df3b ba90 3b3b 5693 18be
000003e0: 920f 3abd 881b d9bd 3bb3 c53d 99bf 1fbb
000003f0: df45 683d 4167 7dbd 88bd ebbd e4b6 0b3e
-0.009068321 -0.14612688 0.0028665762 -0.1751943 0.16373618 -0.042454656 -0.07486209 0.095117144
0.08132145 -0.0078971 -0.049067482 -0.1329967 -0.06258818 -0.124598674 -0.02076815 0.11176904
-0.17635153 -0.10949393 0.053955097 -0.012234702 0.01167454 -0.07964522 -0.1386188 -0.03714939
-0.07101631 -0.15850437 0.15243721 -0.10135626 0.0044073923 -0.0135304965 -0.11288419 -0.20877182
-0.031029075 -0.036149997 -0.15246905 0.04991559 0.20309882 -0.013308551 0.051504593 0.03771205
0.03548122 0.1271739 -0.15601131 -0.04929632 -0.04031333 0.1073991 0.06621885 -0.09300248
-0.10102223 0.056721374 -0.1289685 -0.13700327 0.15822387 0.2124841 0.114908844 0.031314608
-0.01929308 0.12749319 0.07518245 -0.12084242 -0.096312076 -0.10291989 -0.052233487 0.007076998
-0.018063221 -0.12963273 -0.054315645 -0.118891835 -0.064134054 0.20087385 -0.092219956 -0.045310404
0.07855332 -0.13228497 0.07260764 0.22952846 -0.1306381 -0.15886557 0.09467533 0.16074021
-0.14499491 -0.07412711 -0.039686758 0.00014421839 -0.002897131 -0.16417624 0.15015727 -0.022688424
-0.013093607 -0.03197846 -0.058608353 0.040905483 0.09594448 0.03257563 0.07290115 0.0043099173
0.16226038 0.19743696 -0.08155366 -0.15514094 -0.0014044777 -0.017716177 -0.083308056 0.026158148
-0.09685909 -0.0015756201 -0.031759884 0.22244339 0.05149944 -0.17893161 -0.02843425 -0.12779568
0.0008275748 -0.18446483 -0.06539689 0.15349759 -0.15530056 -0.012749746 -0.015530706 0.16652541
0.059768382 0.10747312 -0.080327354 0.016421821 -0.08129074 0.07194306 0.11619903 -0.12458647
0.0024544494 0.13819201 -0.007916933 0.1824846 -0.15233356 0.046268955 0.06964707 -0.07940727
-0.10112582 0.021196272 0.04088875 0.12987942 0.05955931 0.1341147 0.01968267 -0.11612694
0.1840448 0.104079664 -0.03743334 0.029249601 -0.03597751 0.060566995 0.12918468 0.056321826
0.07212201 0.18054602 -0.16444457 0.10772135 -0.0032969962 0.01991264 0.12158176 0.20890564
0.043835644 0.02717956 0.14394781 -0.046974987 -0.19817431 0.042943913 -0.04852597 -0.038514644
-0.018140739 -0.13865781 0.17209588 0.062068213 0.023652634 -0.10548953 -0.079664946 0.10434266
0.115968585 -0.050090104 0.14030512 0.14289384 -0.17489141 -0.21395884 -0.14055654 -0.019864773
-0.0012989705 -0.13479573 -0.07240194 0.11974009 0.08889465 0.105029754 0.03866353 -0.0009168529
0.015379548 0.09931072 0.07230807 0.12911373 0.06159109 -0.19056168 0.106567554 0.040445108
-0.08769933 0.12493979 -0.0701544 -0.23681065 0.13405082 0.1554225 -0.114635415 -0.16864417
0.16708514 0.08327137 0.03075418 0.009503881 0.008547651 0.16037606 -0.15911229 0.029647086
0.010728806 0.028891392 0.064327456 -0.037364125 -0.07827851 -0.029298376 -0.07267192 -0.020860363
-0.17642547 -0.20530298 0.07624259 0.13126361 0.019808926 -0.0040194853 0.105856135 -0.0040617674
0.07867128 0.0026730949 0.041277982 -0.22494282 -0.054027393 0.18107791 0.024946583 0.12230018
0.006102617 0.17895488 0.07171714 -0.14604199 0.14670488 0.006812127 0.00286202 -0.14899954
-0.045425005 -0.10600954 0.09653326 -0.0024375676 0.05670726 -0.06186605 -0.115107596 0.13643986

action_model._discrete_distribution.branches.0.bias f4 [2]
00000000: ffca 02bc e0cb 023c
-0.007982968 0.007983178

action_model._discrete_distribution.branches.1.weight f4 [3, 128]
00000000: 6697 2ebb 1e15 44bc d9a8 a2bb 2600 563b
00000010: 4b96 8ebd 4ad8 a83b 7260 8cbd 2fa9 cbbd
00000020: 5658 72bd 34bc 12bd dd93 99bc 838b 023c
00000030: a5d1 e63c 4a35 adbc d30b 41bd c5f2 d3bd
00000040: 97cd 693c 66e1 c53b 28aa 03be 1580 c43c
00000050: 61cd d0bd 8a17 5bbd c406 083c 1439 d23c
00000060: fbe9 243c 18fe 0bbb c29c c1bd ec7a 823c
00000070: 6089 9cbd 75ec dbbd d33b 1f3d d100 263c
00000080: 6077 7dbd 4356 1bbd 4744 cfbb 6793 0abe
00000090: 1ee0 a8bd 0bb1 a1bd e067 23bd f4d5 30bc
000000a0: b8b8 babd 8231 6dbd e5df 2b3d 63fc 013b
000000b0: b386 8bbd d231 12bc 3227 efbc 530c 833a
000000c0: 9795 d8bb 49d0 efbd 557a 8dba 606a bc3c
000000d0: db79 f03c fb0b a4bd 2bbc 13bd 8e5d 2bbd
000000e0: 3fb9 eebd 6ce1 53bd 1bd1 d0bc 1439 703c
000000f0: c87c 513d aac7 e93c c0b1 34bd 4f57 4a3b
00000100: 1f5f 8b3d c01d a9bc a2c6 1abc 19c4 b13c
00000110: a65c c7bc fe8d ffbd b3b2 533d a236 eb3c
00000120: 216a ddbc 0672 c93c 87b0 b0bd 3f8a c5bd
00000130: c11b 0bba 171a 10bd 36e4 11be b494 04be
00000140: 03f0 05bc 1fd1 28bb dc0f 3ebd cc17 133b
00000150: 5271 a6bd 71f7 1a3d 5f7b e2bd 270b 0dbd
00000160: 8af5 49bd 7d20 d4bc 4bd3 913b 6be7 a3bd
00000170: cfcf 0dbe ca04 863b 9729 29bd 7838 7abd
00000180: 9aad 97bd aa04 39bd 2c0b 063d 961e 153a
00000190: d9e5 f03c 43d9 833d cf59 fab9 580a 4a3b
000001a0: 43e0 913c a3e2 1bbd 1811 07bc ca65 a4bd
000001b0: 772b e8bd e3b7 813d e078 abbd 7951 f73c
000001c0: 3888 83bd 78ce 233d 3e94 34bd 42f1 c9bd
000001d0: 4e83 153c e85d 74bd e5a8 c9bc 5ea0 0dbe
000001e0: bc6b a5bc 9884 88bc 78d3 563d 5f74 a0bc
000001f0: 7dda ac3d 6fd0 22be 3c5e f3bc 8974 623c
00000200: 0380 5fbe 6af8 e1bd 1f0d 553e 0cdf b03c
00000210: e02c ab3d eb97 243e 851b 2ebc 0534 09be
00000220: 16d6 043e 0f94 643e 147a 0fbe 0f20 fb3d
00000230: 204d fabd cfec 74bd 88ae 42be 1079 d53c
00000240: c8cd f63c a1dd ee3c d94b d23b 2845 393e
00000250: cb7e 37be ce7d 20bd a5fe 1bbc 2986 5cbe
00000260: 8aaf 2a3e cb9e 80bd 8cd2 5fbb a763 d43d
00000270: 71ad 92bd 4e08 09be a7f9 aa3d 81c5 083d
00000280: f4f2 f3bd a3a7 363e 2994 b73d 057d 0abe
00000290: 3ab8 873d 77e2 b9bd 3445 8e3d bcb2 613e
000002a0: d2b7 05be d88b a33d 39e6 b6bd 654e 3cbe
000002b0: f7a7 61bd d9bc b0bd 2326 5c3e 9659 143e
000002c0: 47e8 d0bd e518 85bd a16e a3bd a14c d53d
000002d0: ca02 9a3d 7f95 dd3b 90d2 d83d 1fab 493e
000002e0: 1dcd d6bd 9ae3 e3b9 2bee 3d3e a4c3 b83d
000002f0: 6fb5 b43d 897b b33d e61b 16be ef00 2f3e
00000300: 1903 713d 9169 883d 2ec5 3ebe cc1a 6f3d
00000310: 1a54 48be 8e1f 643d 0131 37be 8e29 023e
00000320: c324 323e a7d6 ec3d 6701 38be fb27 e9bb
00000330: b088 a6bd 77da 643d e0ee 2fbd 9e4d a5bd
00000340: 5c34 c73d 7170 03be 3274 5b3e 70ce 493e
00000350: 449e 1fbe f58a 0dbe a3fd ee3d 73ce 413e
00000360: 8e14 3bbe 5d92 31be 4d3a 6dbe dd13 22be
00000370: 6053 b0bd 79fc 613e db13 2d3e 6add a9bd
00000380: 7c89 a3bd 9072 b8bc 7d7a a53d 9c3a dcbd
00000390: 8099 14be fdd2 ffbd cc50 4f3e ab9d e2bd
000003a0: 64f5 0cbe b250 1abe d3c8 1d3e 20cb 16bd
000003b0: 0095 0ebe 452b 10be 52e1 1bbe 54d4 30bc
000003c0: 7902 0dbe 4c0a ddbd 299f dabd 27f1 c83d
000003d0: 3395 25bd 8772 3d3e 7eb5 2dbe 742a 9ebd
000003e0: e9b1 443e 90a5 9d3d 3d1b 10be 2439 473e
000003f0: e4da a23d 981c f9bd 8732 053e 508f 1e3b
-0.0026640533 -0.011967925 -0.004963976 0.0032653897 -0.0696226 0.005152737 -0.06854333 -0.099443786
-0.059166275 -0.035824016 -0.018747265 0.0079678325 0.028176138 -0.021143574 -0.047130417 -0.10349039
0.014270208 0.0060388325 -0.12857878 0.023986856 -0.10195423 -0.053489245 0.008302394 0.025661983
0.010065551 -0.0021361168 -0.09453727 0.015927754 -0.0764339 -0.1073846 0.038875412 0.010132031
-0.061881423 -0.037924062 -0.006325278 -0.13532792 -0.08245872 -0.078950964 -0.039893985 -0.010793198
-0.091172636 -0.057908542 0.04196157 0.0019834272 -0.06812801 -0.008923011 -0.029193494 0.000999818
-0.0066096294 -0.11709649 -0.0010793904 0.022999942 0.02935498 -0.080100976 -0.036068123 -0.041837268
-0.11656427 -0.05172865 -0.025490334 0.014662046 0.05114439 0.02853759 -0.044114828 0.0030874794
0.06805252 -0.020644069 -0.009446772 0.021699952 -0.02433617 -0.12478255 0.051684093 0.028712574
-0.027028145 0.024590503 -0.0862742 -0.09645509 -0.0005306565 -0.03518113 -0.14247212 -0.1294735
-0.008174899 -0.0025759412 -0.046401843 0.0022444604 -0.08127083 0.037833635 -0.110586874 -0.034434464
-0.04930643 -0.025894398 0.004450237 -0.08003124 -0.13848804 0.0040899264 -0.04129943 -0.06108901
-0.07406159 -0.045170464 0.032725498 0.00056884566 0.029406475 0.06437924 -0.00047750628 0.003082892
0.017807132 -0.038057934 -0.008243822 -0.08027227 -0.11336415 0.06333902 -0.083726645 0.030190216
-0.06422466 0.039991826 -0.044086687 -0.098604694 0.009125544 -0.05965987 -0.024616668 -0.13830706
-0.020192973 -0.016664788 0.052447766 -0.01958674 0.08440111 -0.15899824 -0.02970802 0.013821729
-0.21826176 -0.11033709 0.20805787 0.021590732 0.083581686 0.16073577 -0.010626678 -0.1339875
0.12972292 0.22322105 -0.14011413 0.12261974 -0.12221742 -0.05979615 -0.19011891 0.026058704
0.030127421 0.029158415 0.006417733 0.18092787 -0.17919461 -0.039182477 -0.009521161 -0.21535553
0.16668525 -0.06280287 -0.0034152595 0.1037057 -0.071619876 -0.13382074 0.08348399 0.03339148
-0.11911574 0.17837386 0.08963806 -0.13524254 0.06626935 -0.09076398 0.06946793 0.22040838
-0.13058403 0.079856575 -0.0893063 -0.1838928 -0.055091824 -0.0862977 0.21498923 0.144873
-0.102005534 -0.06498889 -0.07980085 0.104150064 0.07520063 0.006762206 0.105870366 0.19694184
-0.10488341 -0.0004346639 0.18547885 0.090216905 0.08823668 0.08763797 -0.1465908 0.170902
0.058840845 0.0666076 -0.18629906 0.058375165 -0.19563332 0.055694155 -0.17889787 0.12711164
0.17396836 0.11564379 -0.17969285 -0.0071153617 -0.0813154 0.055872407 -0.04295242 -0.08071445
0.09726784 -0.12835862 0.21431044 0.19707656 -0.15587717 -0.13822539 0.11669471 0.1892641
-0.1826956 -0.1734099 -0.23166771 -0.1582789 -0.086096525 0.22068967 0.16902106 -0.082941845
-0.079852074 -0.022515565 0.080800034 -0.10753366 -0.1451168 -0.12491415 0.20245665 -0.11065229
-0.13765484 -0.15069845 0.1540864 -0.03681481 -0.13924026 -0.14079006 -0.15222672 -0.0107928105
-0.13770474 -0.107929796 -0.10674889 0.09811621 -0.04042549 0.1850072 -0.16963765 -0.07722941
0.19208492 0.07697594 -0.1407289 0.19455391 0.07951906 -0.12163657 0.13007556 0.0024194308

action_model._discrete_distribution.branches.1.bias f4 [3]
00000000: 635e 6b3b 662e 03bd 2338 413d
0.0035914413 -0.03202667 0.047172677
