Assets/brains/CarAI13.onnx (onnx, 97358 bytes, 9 tensors)

discrete_act_size_vector f4 [1, 2]
00000000: 0000 0040 0000 4040
2.0 3.0

network_body._body_endoder.seq_layers.0.weight f4 [128, 41]
00000000: 6fdb 86bd 6d13 a23e abbc bdbd b4e2 0d3c
00000010: ac12 b33d 2278 953c 56ce 643e ae2b 1abe
00000020: 680a 0e3e cb20 853d 9440 b9bd 7c51 a83e
00000030: 3df5 8fbe 8d4a 243e 6128 9d3e f2c2 2bbd
00000040: 6520 42bd d972 ec3d 1cb3 ac3d 2ea7 2abe
00000050: 7653 79be ab6c 1d3d 1436 053e 94f5 373e
00000060: 6692 57bc ee11 d83c c2f5 90be b245 56be
00000070: 3da8 8e3e dff0 c4bd 81d0 6fbb 9ab5 623e
00000080: d34f 873e 3ef8 293d d451 75be d9ad 673e
00000090: 6dda df3d ef64 863d 324f 48be b670 8d3d
000000a0: e8ff c7bd 78f9 3c3d f673 3bbd b01e fb3d
000000b0: bd31 223d 60cd 0cbe b733 963d 32a6 b3bd
000000c0: 964f 3f3e b769 603e 6df4 cdbe 57cf 26bd
000000d0: 3e70 f73e d4f4 d6be 93a8 803d 189c 97bc
000000e0: e59b 59bd bcef 9e3c bf01 d53d f53a 24be
000000f0: 5164 2bbd 0c8e 8bbe 386c 833e d11f 3f3e
00000100: e90f cfbd 4ec6 683e 75ec 12be 5733 d4bd
00000110: 431e b6bd 7543 5d3e c24c 08bd 06af 8c3b
00000120: b2ac 7dbc 3c69 d93a a066 c63d d427 043c
00000130: f678 82be 57e5 b9be b734 163e ed79 a13e
00000140: 19ed 1c3e eb78 393e 188c 20be 09d7 2c3d
00000150: 5198 9d3e c729 42bc 1fc3 61be fc8b e33d
00000160: 4174 2f3e ece8 de3d 7126 d83d 3cca 0b3e
00000170: 48a2 7d3e 3b90 fe3c 1523 393e 36e9 5ebe
00000180: 55ef f3bd 5ec0 543e e62a f1bd 3aa9 ad3c
00000190: 618c 9e3d 38cc 02be a32f 09bd 2686 123e
000001a0: cd47 12bd 72da 133e a1a2 863e 76e4 d13d
000001b0: fcae 6bbd 5eb7 27be 7244 cebe e5ea 8fbc
000001c0: 775f d83c 9638 f53c 04fe 833e fa25 3f3d
000001d0: 8095 f73d 1b71 8dbe 99c2 483e c2a3 21bd
000001e0: 0ddb 5dbe abce 1e3e 92ca d53a b980 c23d
000001f0: d7f3 a63d da00 1c3e 82a6 d1bd 8c28 38bd
00000200: 8123 15be 091b 803e 26ac 303e c1c6 a5bd
00000210: ffc0 0cbc 6028 5cbe 51d6 993d aee8 1f3e
00000220: c282 e73c 27ee b93d 9d87 80be ba95 94be
00000230: 8efb 863d a1ef ec3d f29e 8c3d 1576 393e
00000240: 5d00 5c3d 06e2 383e b351 b0bc 309b 32bd
00000250: cde6 9c3d da70 a2bd c374 4b3e 0c2a 98be
00000260: 828b bbbd 74c4 88be ef70 bdbd f4c3 1dbd
00000270: 457b 9d3c 89d0 5abe 12e6 003f 9192 d6bc
00000280: 516c ac3d 8ed0 b63d 6bfd c53d 82d0 803e
00000290: a05b cfbe 330e 113d 22dd d8bd dddd 0a3e
000002a0: 31e5 98bd 87c2 c03c e516 66be 7abf e2bd
000002b0: 99b5 55be d4f1 523d 4854 88bd b9ea 113e
000002c0: 1c11 1dbf b347 4c3e 03a3 8ebe 1061 d53d
000002d0: d64e e83e efc3 173e 106d 33be 8d97 e83d
000002e0: d5be bebe bb30 693e f796 603d bfb7 bf3e
000002f0: bd97 193e 7712 d53d 9467 ff3c 6d70 f53d
00000300: be4c cf3d 0b1d b53d a9a8 5e3e d680 513e
00000310: c3ca 0c3e 547e e2bd 0ab7 9e3d ba28 df3d
00000320: 5590 db3d 7ce9 ab3d c411 ab3c 22bd 083e
00000330: 5539 a5be 4c23 8a3e a85b 363e 3fa2 a0bd
00000340: 6dd6 5c3e b0d0 913e ce2d dcbc e389 9c3c
00000350: b099 503e 9ae2 e3bc 487d 0b3e acd7 353d
00000360: a6fa b4be a629 a63e 63c0 97be dba9 8dbd
00000370: 9e71 93bd 1255 3dbe c67c 01bd 0ef2 083e
00000380: 0829 373d d83a da3e a7fb aebd 219d 91bd
00000390: 1549 a7be cb41 7ebe 19fe 22bd 38d0 5f3e
000003a0: fddc 29be 605d 84bd b4b4 43bd 3fc9 ccbe
000003b0: 5af1 b33d 52a9 0bbf add3 173e be57 7bbe
000003c0: 5cdf 0ebe 7583 663e 0836 5d3d 0c0b 5e3e
000003d0: 430f adbe a82c 8f3e 8543 1cbe e208 703e
000003e0: 2aac 3ebd 8d29 18bd 8866 b23e 59f8 a9bd
000003f0: c14e febd f3dd 293d 41c0 6b3d 3a65 633e
-0.065848224 0.31655446 -0.09264501 0.008660007 0.08743796 0.01824576 0.22344336 -0.15055725
0.13871157 0.065003954 -0.090455204 0.32874668 -0.2811679 0.16044064 0.3069487 -0.04193396
-0.047394175 0.11545343 0.084326 -0.16665336 -0.24348244 0.038433712 0.1300891 0.17964774
-0.013157463 0.026375737 -0.28312498 -0.20925024 0.2786273 -0.09616255 -0.0036592784 0.22139588
0.2642809 0.041496508 -0.23956996 0.22624911 0.10930333 0.0656222 -0.1956146 0.069062635
-0.09765607 0.04613635 -0.045764886 0.122617126 0.039598215 -0.1375022 0.073340826 -0.087719336
0.18682703 0.21915327 -0.40225545 -0.04072508 0.48327821 -0.41983664 0.06282153 -0.018507048
-0.05312719 0.019401424 0.10400724 -0.16038115 -0.041843716 -0.2725681 0.25668502 0.18664481
-0.101104565 0.22731897 -0.14348014 -0.10361355 -0.08892491 0.21607764 -0.033276327 0.0042933254
-0.015483068 0.0016587148 0.09687543 0.008066136 -0.2548291 -0.36307785 0.14668547 0.31538334
0.1532482 0.18112533 -0.15678442 0.04219726 0.3078027 -0.011850781 -0.22047089 0.11110684
0.17134191 0.1088427 0.10554207 0.13651365 0.24768937 0.031074634 0.18079789 -0.2176865
-0.11910883 0.20776507 -0.1177576 0.021198858 0.07741619 -0.12773216 -0.033492696 0.14308986
-0.035713006 0.14438799 0.2629595 0.102486536 -0.057539925 -0.16378543 -0.40286595 -0.017568061
0.026412709 0.029934209 0.25779736 0.046667077 0.12089062 -0.27625355 0.19605483 -0.039462812
-0.21665592 0.15508525 0.0016310981 0.09497208 0.081519775 0.152347 -0.10236837 -0.044960544
-0.14564325 0.25020626 0.1725317 -0.0809455 -0.008590936 -0.21499777 0.07511581 0.15616104
0.028260592 0.09078627 -0.25103465 -0.29020482 0.06590949 0.11569143 0.06866254 0.18111451
0.053711284 0.18054971 -0.021523332 -0.04360503 0.07661209 -0.07931681 0.1986876 -0.2971958
-0.091574684 -0.26712382 -0.09250056 -0.038516954 0.019223819 -0.21368612 0.5035106 -0.026192935
0.08419097 0.089264974 0.09667476 0.2515908 -0.40499592 0.035413932 -0.10589053 0.13561197
-0.0746559 0.023530258 -0.22469671 -0.110716775 -0.20870055 0.051500157 -0.066567004 0.14249696
-0.6135423 0.19949226 -0.27858743 0.10418904 0.45372647 0.14820836 -0.17522073 0.11357031
-0.37254968 0.22772495 0.05483147 0.37444875 0.1499929 0.104039125 0.03117732 0.11984334
0.10122059 0.0884343 0.21744026 0.20459303 0.13749222 -0.110592514 0.07749756 0.1089644
0.107208885 0.08394143 0.020882495 0.13353398 -0.32270303 0.26980054 0.17808402 -0.07843446
0.21566172 0.28479528 -0.02687731 0.019108718 0.20371127 -0.027818013 0.1362201 0.044395134
-0.3534748 0.3245365 -0.29638967 -0.06917163 -0.07199405 -0.18489483 -0.031613134 0.13373587
0.044716865 0.4262302 -0.085440926 -0.07110048 -0.32672945 -0.24829786 -0.039793108 0.21856773
-0.16588207 -0.06463122 -0.047779754 -0.3999729 0.087862685 -0.5455524 0.14826842 -0.2454519
-0.13952392 0.22511084 0.054006606 0.21683902 -0.33800706 0.27963758 -0.15260132 0.23440889
-0.046550907 -0.037149 0.3484385 -0.08299322 -0.12417365 0.041471433 0.057556394 0.22206584

network_body._body_endoder.seq_layers.0.bias f4 [128]
00000000: 9f50 263d 1abf 303d 58c9 613c 7f68 9cbb
00000010: a9e9 533d 21ff a43c dafc d43c 7ece 413d
00000020: bbbc b63c a216 d1bc d9fa a83d b6d8 a43d
00000030: 598f 9fbc 9a0f f23c 2c01 893d 77e8 b739
00000040: 968c 793c f183 9a3c 48a4 ff3d a381 fc3c
00000050: a6f0 e93c 6900 613a 81a5 daba 6027 2e3d
00000060: c0f6 133d 18f4 7dbc b182 8c3c c327 8b3d
00000070: 8185 1f3d 9dad 8c3d 25ac 433b 0300 133d
00000080: 9fe2 ed3c 7015 d4bc 036c cc3c 5013 d53b
00000090: 531c 0d3c 69fc 13bd 9680 e73c 4127 c43c
000000a0: 4d8e 76bc 3e45 a33d c570 8e3d deaf b53d
000000b0: fe7e ff3c f992 a43c 4cbc 803d 6ccc 6b3c
000000c0: 6c12 193d b473 b83c b4c7 513c a86d ce3c
000000d0: 8648 e73d 24ce 4b3d 519a a53b 26a5 cd3c
000000e0: 532b 51bd 9d7c 743d bf2e e63b 00e1 3f3c
000000f0: 9376 353d 0e4e 393d f427 683c 8878 3d3b
00000100: 8ecc aa3d c659 513c 1884 233d bf46 e03c
00000110: fe42 493c ad4d cd3c 0903 923d 8534 ba3c
00000120: cff3 853c 8a07 223d 0863 e53c 4c42 ddbb
00000130: f22e 213d 4547 be3b cce5 273d bc7e 10bc
00000140: fb86 4e3d 9ab6 babd a613 7f3d 9f7e cc3c
00000150: f47e 01bd 176c 4f3b 680f 7f3d c1fc 833d
00000160: b1d7 a43d 956e 1b3d 0f9e 8e3d 12d1 373d
00000170: 361a f53c 4bd8 abbc 9302 f83a e093 e33b
00000180: 8503 133a 186a c7bc 3fe2 133d f730 a8ba
00000190: c782 773d ed9b 82bc 8e85 8b3d f241 b0bc
000001a0: 5e53 1f3d 8b30 2c3d 7990 503d e9b3 c13b
000001b0: 0f42 1e3d 559b 323d 8523 6d3d f819 373d
000001c0: a5ba dd3d b4c4 0c3d 6bf3 f13c be96 2c3c
000001d0: f83c ef3c 5040 ecbb 956b b83d d1d0 fb3c
000001e0: 8fe3 163d 1a51 d43c 3d6e 8cbc 00af 2b3d
000001f0: dfa6 163d a238 633d 03ce 5c3a 400b da3c
0.04060423 0.043151 0.013780914 -0.004773199 0.051736508 0.020141186 0.025999475 0.047316067
0.02230679 -0.025523487 0.082509704 0.08049147 -0.019477533 0.029548455 0.06689677 0.0003507768
0.015231272 0.018861743 0.12482506 0.030823534 0.028557133 0.000858313 -0.0016681404 0.04251802
0.03612399 -0.015500091 0.017152162 0.06794693 0.03894568 0.068690516 0.0029857245 0.035888683
0.029038725 -0.025889128 0.024953848 0.0065025464 0.00861271 -0.03612939 0.028259557 0.023944499
-0.015048576 0.07972191 0.06955103 0.08871435 0.031188484 0.020089613 0.06285915 0.014392
0.037371084 0.022516109 0.012803961 0.025198773 0.112931296 0.049757138 0.0050537963 0.025103163
-0.051066708 0.059689153 0.0070246155 0.011711359 0.044302534 0.045240454 0.014169682 0.0028910954
0.08339797 0.012777751 0.039920896 0.027377484 0.012284039 0.025061453 0.07129485 0.022730121
0.016351609 0.03955797 0.028001323 -0.006752288 0.03935141 0.005806836 0.040990636 -0.008819278
0.050421696 -0.0911686 0.062274598 0.024962721 -0.031615213 0.003165012 0.062270552 0.06444693
0.08048952 0.037947256 0.06963741 0.04487712 0.029919725 -0.02097716 0.0018921666 0.0069451183
0.00056081294 -0.024342582 0.036104437 -0.0012831975 0.060427453 -0.015943492 0.06812583 -0.02151582
0.038897865 0.04203848 0.05091903 0.0059113395 0.038637217 0.043605167 0.057895202 0.0447025
0.10826615 0.03436728 0.029535016 0.010533987 0.029203877 -0.007209815 0.09004895 0.03073922
0.03683811 0.025917578 -0.01714241 0.04191494 0.036780234 0.05547393 0.0008423032 0.026616693

network_body._body_endoder.seq_layers.2.weight f4 [128, 128]
00000000: 41c9 e93b a1c3 85bd 1c87 923d 22be aa3d
00000010: 9e6e 0b3e 19ad f03d f8f7 b43b 8b98 253d
00000020: 5d6a c33c fdf0 d73c 8b1a 193e 5872 93bd
00000030: 2b3c 95bd dbce d8bd 99a1 673d 9eb4 8dbd
00000040: dbe7 1ebe 4fef 493e 3627 3a3d f8bf b43c
00000050: 8d5f 2d3d 4021 153d 5b75 c73b f322 02be
00000060: 39dc 52bc d5e0 12be 6796 0aba d14a 5dbe
00000070: 94e0 e03d d04b 51be ea93 d6bd 507e 5ebe
00000080: 62db 453e 46dd 2e3d 7290 973d 353b 16be
00000090: 48ff 3bbd eb3c de3d 3004 fcbd b442 883d
000000a0: 5510 833e f42f 893d da2b d13d 8225 b13d
000000b0: 6b1e eebc 54ee 24be eca3 67bc 4673 e63b
000000c0: 6bbe 103e fa72 3b3c 98f0 223d bb90 153e
000000d0: 4e90 a6be fc3a a53c 398d 013e e78a e23d
000000e0: acb8 3c3d 9675 0a3d e910 3bbe ec35 3f3e
000000f0: c120 b6bd 7220 afbd 1874 133e 063b 61bd
00000100: ef0f 543d d37e bdbd 654d b0be a25e 153e
00000110: 583f 0ebe b8ec c93d e1f9 0abe 697b 2a3e
00000120: d371 94bd 5255 bfbc 1079 6ebc b5d0 903d
00000130: c916 863e 4d51 b0bd 1578 25bc 98d1 d03d
00000140: 1ecb 00be cc5e e23d e21a c4bd d080 00be
00000150: 8c42 513e 6bef 78bd 66c8 b43c 1168 ed3c
00000160: 886c 5ebd c5c3 e73d bf3a 193e b538 a43d
00000170: de24 8e3d 9de6 903c 9672 4cbe fb59 2abd
00000180: 8a71 b6bd 54be b7bd 2275 33bd 4308 143e
00000190: c59e d1bd 6d7b 73be 92be 353e 0cd6 093d
000001a0: c2d4 76bd af07 09be d6d1 d1bd 8c19 8d3b
000001b0: 8d14 d03c 5389 943d e458 703d 1a42 d8bd
000001c0: 48be 33bb 18eb 833d e85c 2bbe 353e f53a
000001d0: c1f0 d6bc 1999 963d 2b55 993e 3c0e 623e
000001e0: cbd5 a63c 9b29 9d3d 023a 54bd a6e8 213e
000001f0: b8b6 b8bb d858 873d 595c dfbd ef48 17be
00000200: 6256 7dbc ad80 b13c d2d3 6b3e 0502 f4bd
00000210: c994 a83d 0803 743b e169 26bd aef0 3b3e
00000220: e661 b6bd dc81 ba3d 28f6 8cbd b7cc f53e
00000230: 3374 02be 5ce6 8cbe 1db1 933d 4045 f83d
00000240: bcb7 0d3e f817 d4bc 8a27 c93d 6d7d 0abd
00000250: c5d0 cd3d 2b99 ac3d 0063 633e 5b82 0d3e
00000260: f01a f4bd b551 053d b4a6 2abe 52f8 913b
00000270: 4cea 9e3d 3990 1abe e6ee aabd 2414 1cbd
00000280: d309 183e 209e d9bd 0d37 933c 56ec 3ebe
00000290: 8300 853e 4857 58be 9bde 563e 6315 86bd
000002a0: f65a c03d 3b3f 273e b6a8 993e 9389 9d3e
000002b0: 2c6a 8cbe 65d5 f2bd b639 1a3e e189 e33d
000002c0: bfcb f3bc 4a12 7b3d 29fd e2bc 9fae 28be
000002d0: 5d1e 11be af80 79be 5e10 873d 7ff2 513e
000002e0: 52cd 9dbd 3e6e 493e 7703 3e3d a03e 713d
000002f0: d8c6 85bb ab10 083e 1bc0 df3d e303 2fbd
00000300: bc60 c2bd 69cd 05bd abd2 d8bd fead 69be
00000310: 2197 5bbd ad1c 58be 3b2c 243e 2d02 b13d
00000320: e783 093c 2d49 a6bd 3a1c 9d3d 0682 853e
00000330: efb9 0f3e df3d 2dbe 3bbe 01bd 8e27 b33d
00000340: d6a8 6d3c 07c5 d5bc a13e 9e3b c196 e03d
00000350: 8572 c2bd 46f1 f0bd 228e 9a3d 78fa 983e
00000360: 9e90 3dbe 92c2 e7bd 294e 37be 22b7 9b3e
00000370: 3965 f1bc 3f46 a2bd 6ee5 49be e517 5f3d
00000380: 8290 52be 24ee d93d b2e3 91bc 386d a63c
00000390: a6e3 763e fc1c 25be 7ffb 1b3d 49bb 17be
000003a0: cb03 49be d54d ccba ed5e a83c 4484 ad3d
000003b0: b65c 8dbe e7d6 d93c a7c9 143e eac9 37bd
000003c0: fe62 a93c 1b1c 183e 21dd 18be 0c60 e7bb
000003d0: fab4 7a3d 1147 4b3c e1de 163c 39e4 ab3d
000003e0: fe63 b33b baa1 193d fd6a 90be ed62 0e3e
000003f0: 345e 11be 46b0 6ebd 217c 00bd b4be c8be
0.007134587 -0.06531454 0.07154676 0.08337046 0.13616416 0.11751766 0.0055227242 0.04042868
0.023854429 0.02636003 0.14951532 -0.07199544 -0.07286867 -0.105863295 0.056550596 -0.069192156
-0.15518133 0.19720195 0.04544755 0.022064194 0.042327452 0.036408663 0.006086988 -0.12708645
-0.012869888 -0.14343579 -0.0005286694 -0.21610571 0.10980335 -0.20439076 -0.10477431 -0.21727872
0.19321969 0.04269149 0.07400598 -0.14671023 -0.045897752 0.10851463 -0.12305486 0.066533476
0.25598398 0.066985995 0.10213442 0.08649732 -0.029067239 -0.1610654 -0.014138203 0.0070327846
0.14135139 0.011440987 0.03978023 0.14605992 -0.3253197 0.020169728 0.12651528 0.1106165
0.046074554 0.033803545 -0.1826817 0.18672913 -0.08892966 -0.0855111 0.14399755 -0.05498793
0.051773008 -0.092527054 -0.34434047 0.14586881 -0.13891351 0.09859604 -0.13571884 0.1664864
-0.07248273 -0.023356114 -0.014555231 0.07071058 0.2618926 -0.08609257 -0.010099431 0.10196227
-0.12577483 0.11053237 -0.0957544 -0.12549138 0.20435542 -0.0607752 0.022068214 0.028980287
-0.054302722 0.11316637 0.14963816 0.080186285 0.069406256 0.01768809 -0.19965586 -0.04158972
-0.089083746 -0.08971849 -0.04381288 0.14456277 -0.10235361 -0.23777552 0.17748478 0.033651397
-0.060261495 -0.13381837 -0.10245101 0.004306024 0.025400424 0.07252755 0.058678523 -0.10559483
-0.002742665 0.06441325 -0.1673466 0.0018710556 -0.026237847 0.0735342 0.2994779 0.22075742
0.020365616 0.07673951 -0.051813133 0.15811405 -0.005637016 0.066087425 -0.10906286 -0.14773916
-0.01546249 0.021667803 0.23030022 -0.11914448 0.082315035 0.0037233252 -0.040628318 0.18353531
-0.089053914 0.091068 -0.06882888 0.48007748 -0.12739639 -0.275195 0.07211516 0.121225834
0.1383962 -0.025890335 0.098219946 -0.03381102 0.10049585 0.08427652 0.22205734 0.13819258
-0.119192004 0.032548625 -0.16665155 0.004454651 0.07759532 -0.15094079 -0.083463475 -0.038105145
0.14847498 -0.10625863 0.017970586 -0.18644843 0.25976953 -0.21127045 0.20983355 -0.06547048
0.093923494 0.16332714 0.3001153 0.30769023 -0.27424753 -0.11857108 0.15061077 0.11110283
-0.02976024 0.06129674 -0.027708607 -0.16472863 -0.14171739 -0.24365495 0.06594919 0.20502661
-0.07705177 0.1967096 0.046390023 0.058897614 -0.004082542 0.13287608 0.10925313 -0.042728316
-0.09491107 -0.032666598 -0.10587057 -0.22820279 -0.053610925 -0.21104689 0.16032498 0.08642993
0.008393264 -0.08119426 0.076713994 0.26075763 0.14035772 -0.16918133 -0.03167556 0.08747779
0.014505586 -0.026094927 0.0048292433 0.10966254 -0.09494499 -0.11764769 0.07546641 0.29878592
-0.18512198 -0.11316408 -0.1790091 0.30413157 -0.029467212 -0.07923555 -0.19716427 0.054466147
-0.20562938 0.10641125 -0.017808769 0.020315751 0.24110278 -0.16124338 0.038081642 -0.14817537
-0.19630353 -0.0015587161 0.020553077 0.08472493 -0.27609795 0.026591731 0.1453005 -0.044870295
0.020677086 0.14854471 -0.14928104 -0.00706101 0.06120775 0.01240708 0.009208412 0.083931394
0.0054745665 0.03750775 -0.28206626 0.13904925 -0.14196092 -0.058273576 -0.03136838 -0.39207995

network_body._body_endoder.seq_layers.2.bias f4 [128]
00000000: 0453 04bd 02c2 233d c15c 523a 023c 9e3d
00000010: c006 903c ab5b 6e3d eaa6 9b3d 011d 623d
00000020: 06bf be3b 8a1d f53c 6a9a 073d 3158 cabb
00000030: 7171 893d aff2 163d 201f f73c 4331 973d
00000040: 0e9c 92bb dbde 733d d240 e13c aeac fc3c
00000050: f0bf 643c e356 a33d 12ce 913c 69b3 ae3b
00000060: 0bf1 9d3c d4c7 7bbc 1d9c 18bc f48b a23d
00000070: c7f4 dd3c 73d0 c73a b794 983d 2b8b 563c
00000080: c1be e83c 957f ae3d 5ab0 593d c8e6 0ebd
00000090: e160 6b3d b70a 943b a482 9dbb 0fd3 923d
000000a0: 37da 763c eb14 9bbc 7743 013d 6178 2c3c
000000b0: e7f0 d8bc b31e 2a3d 19f8 013d a29b e33c
000000c0: c497 e1bc bed6 b93b 2bc9 19bc 1986 363d
000000d0: 8d97 223d 8ee2 da3b e158 8bbc 321a d1bc
000000e0: 2b04 9a3d 4545 823d 0df9 54bb 54a1 a13d
000000f0: 186d 8a3d b73e c23c 4dd4 353d bfac 3f3d
00000100: 8c2b 9dba 1020 6b3d a0b3 2bbb 47c5 0d3b
00000110: bdf2 373d 119c 0e3d 3b76 393d c57e 613c
00000120: e22c a63d 34dc 563d 9cf4 173d c478 153d
00000130: 80a9 fa3c cb9f abbc 46fc 2e3d 2221 003d
00000140: cbcb 9b3b bb3f e43c 73b7 cc3a fe7f 5c3b
00000150: d153 1bbc e152 3c3c 2dd0 723d 98ab ec39
00000160: 8710 f6ba 32e8 9a3d 3a75 2d3d 5ca6 433d
00000170: 1977 4b3c 4ab1 9e3b 1f50 ef3c 73a1 543c
00000180: aa50 4fbc ba49 223c d982 923d 9a35 3d3d
00000190: 72ef 15bd 5fbe c53d 61f4 143d ac55 ba3a
000001a0: 1994 0e3d a78a cd3c 921a 953d 9be5 2f3d
000001b0: 5b6e 0c3d 047f de3c ad3e 423d 24c4 4e3c
000001c0: 1d56 673d 70dd 943c ee24 f63b c342 18bc
000001d0: 3d2b 143d 071a b03c 3043 6e3d 0ea4 913d
000001e0: 0e2c 7e3b 83b9 573c 8433 693d 0495 a43d
000001f0: c7f8 9e3c b8dc 9c3d ad97 433d 102c b93d
-0.032305732 0.039979942 0.00080246857 0.07726289 0.017581344 0.05819289 0.07600196 0.05520344
0.0058211116 0.029921312 0.033106245 -0.006175064 0.0671109 0.036852535 0.030166209 0.07382443
-0.0044741696 0.059538703 0.027496729 0.030844059 0.013961777 0.07975557 0.017798457 0.005331446
0.019279977 -0.015367467 -0.009314564 0.0793685 0.027094258 0.0015244618 0.0745024 0.013094704
0.028411271 0.08520428 0.053146698 -0.03488806 0.057465438 0.004517879 -0.0048068333 0.071691625
0.015066675 -0.018930873 0.03155848 0.010526747 -0.026482059 0.041533183 0.031730745 0.027784172
-0.027538188 0.005671351 -0.009386341 0.04456148 0.03969531 0.0066798395 -0.017010154 -0.025525186
0.07520326 0.06360868 -0.0032497079 0.07892099 0.06759089 0.023711545 0.04439192 0.046795603
-0.0011991127 0.057403624 -0.0026199594 0.002163248 0.044909228 0.034816805 0.04527877 0.013763134
0.081140295 0.052456096 0.037098512 0.036492124 0.030598402 -0.020950219 0.042721055 0.031281598
0.0047545186 0.02786242 0.0015618637 0.0033645625 -0.009480433 0.011494369 0.059280563 0.00045141275
-0.0018773236 0.07563819 0.042348124 0.047766075 0.012418532 0.004842912 0.02921301 0.012977946
-0.012653509 0.009905273 0.071538635 0.046193697 -0.036605306 0.09655451 0.03636587 0.0014216206
0.034809206 0.025090529 0.072804585 0.04294358 0.03428493 0.027160175 0.047423054 0.012620006
0.05647861 0.018171996 0.0075117266 -0.009293261 0.036174048 0.021496786 0.058169544 0.07111369
0.0038783583 0.013166788 0.056933895 0.08036235 0.019405736 0.07659286 0.04775207 0.090416074

action_model._discrete_distribution.branches.0.weight f4 [2, 128]
00000000: a2ba ed3d 19f1 e83d 455c 273e 0365 553d
00000010: 9c21 2f3d b69b 73bd 6f9c 733d 6c80 b0bd
00000020: 50ee 183e 602b 853d c716 4dbd 1548 e33b
00000030: 1981 fbbd 5dbe db3d 36b1 c23d 4bcc 793d
00000040: 165e c53d bb6e 0e3d 4d18 f4bc aab7 ccbd
00000050: 662b 1c3e 9a29 b3bd 3dac 433e a140 453d
00000060: ea8c 01be 1a5c 143a d3c3 713e 021a f0bd
00000070: aa25 d83d 0501 73bc f2c4 403d 0427 003e
00000080: b13f fb3d e55f 8c3d 058f 353c 5cc8 8f3d
00000090: b2f5 3cbe def7 c33c 8f46 b33d aab6 07be
000000a0: 0a96 a03d 1233 0b3d 3dfc 0e3d 2527 393d
000000b0: 60ee 093e b81a 93bd 1dcc 8bbd 1be1 c23d
000000c0: ea84 293e 3114 c23d 9dfc 7b3a 0e02 48bd
000000d0: 5d54 8d3d 1dad dc3c d23d f33d bd98 053e
000000e0: 49e2 9fbd 16ad 783d 9a3d c7bd c68a f43b
000000f0: 5426 29be fbc5 743e 3eb7 9fbd 9e32 1cbe
00000100: 1ce7 11bd 647e a9bd a460 153e 3468 89bc
00000110: 61f7 bebc 3c19 3d3e 40f3 04bd 6738 2a3e
00000120: 00ef b8bc 8b92 72bd 2f8c b6bc c914 4f3c
00000130: 1c9e d23d 5820 403b bd7e ab3d 498a 1d3e
00000140: b192 383e bb05 f2bd cb15 5b3e f095 b8bc
00000150: 4230 1a39 2475 dcbd 963a 113d e121 153e
00000160: b01d 96bc 9bc4 84bc aa9d 803d 9f7c 01be
00000170: f3b2 e9bc babb 36bd d379 07be b96c e13b
00000180: 0f82 ac3d 8ae6 d33d 4820 873d 2094 d5bd
00000190: f45e 6d3d 5d51 31bd 9d2a 213c d810 363e
000001a0: b223 5f3e 3769 1c3e 61ef 64bd 4d54 073e
000001b0: 27fb b03d 0408 1d3e c8f6 8b3d 5f7d 223e
000001c0: 82fc 08bd 07aa c53d 5ec2 6bbc 9046 363d
000001d0: 141f bd3d dbeb 4d3e 076d c63c c5fc 3dbe
000001e0: 5370 863d ed9e 6c3c 1b27 5e3d 0e63 f83b
000001f0: ed72 ee3d be04 8d3d aada 2dbe b259 fa3b
00000200: abf8 f9bd 67c0 e4bd 9b11 2ebe 303c 1cbd
00000210: d7a4 1bbd 5c2c 9a3d fa8e 88bd d095 a13d
00000220: ec43 2cbe a2a2 30bd 127a 333d 7f97 f9bc
00000230: 3f36 143e d989 d5bd 3004 cebd 81e0 8ebd
00000240: 8b99 a1bd 3e22 79bd fb43 0e3d f6bf f93d
00000250: 5e36 12be 899e 983d e6cb 3ebe 7efa 4abd
00000260: 30a4 0b3e 4df7 6dbc 052f 5cbe 0031 eb3d
00000270: 8190 c9bd 2d35 37bb d625 43bd c58e f1bd
00000280: 20e6 0fbe d827 97bd f6d7 5fbc f111 9bbd
00000290: a06f 363e aab1 81bb 9dd1 8fbd 6d0b 0f3e
000002a0: 79eb b1bd 172f 98bc 99ac 5bbd a300 2cbd
000002b0: 30a2 03be 805f 9a3d f97d 9a3d 8a21 bebd
000002c0: 30b6 23be dca8 9abd c22d 68bb 1432 c23c
000002d0: 5408 8fbd a88b adbc ee88 e6bd 2d37 cfbd
000002e0: bcf5 603d dbd1 57bd 65c2 e13d 07e0 373b
000002f0: 3912 323e ec84 72be 7a7e 8c3d c1ca 0f3e
00000300: e64d 183d f2aa 933d 42f2 12be 3b5f 1e3c
00000310: 84cc 933c b962 34be 4e46 963c d3ef 1dbe
00000320: 5248 cb3c 44f4 7a3d 2515 fd3c d7da 2bbc
00000330: 262b f3bd 960a 613c a565 abbd 521c 0abe
00000340: bdac 34be 3129 fd3d 1124 5bbe bdeb 1b3d
00000350: f608 d43b ec7d ea3d 9469 93bc 3c7b 05be
00000360: 04aa 483c 28d4 0dbc 3186 7abd 17c1 033e
00000370: 97c7 e33c edd3 4f3d b0df 183e 0618 153b
00000380: f40e a8bd cfb0 fbbd da2d b7bd b9b7 c63d
00000390: 02f2 c4bd 7ce3 4b3d 5df2 d0bc 286e 26be
000003a0: dc67 5fbe e63c 21be 3382 983d 291a 1abe
000003b0: 3bdd d4bd 6e80 06be 527a a7bd 958f 18be
000003c0: 24d1 303d a183 bdbd def1 b63a 7759 99bd
000003d0: 165b c2bd 87ab 3fbe 53a9 fcbc 3cac 2c3e
000003e0: 649b 64bd a08c 40bb 4889 72bd 2448 e1bb
000003f0: a3aa edbd d18d 84bd 2990 2d3e ce61 04bc
0.11607863 0.11374111 0.16343792 0.052098285 0.04275666 -0.05947467 0.05947536 -0.086182445
0.14934659 0.06502414 -0.05007055 0.006936083 -0.12280483 0.10729668 0.095064566 0.060985845
0.09637086 0.03477357 -0.029796744 -0.09995969 0.1525093 -0.08748169 0.19108672 0.048157338
-0.1265141 0.0005659476 0.23609857 -0.117237106 0.10554059 -0.014831786 0.04706282 0.12514883
0.122680075 0.06854228 0.011081462 0.070206374 -0.184531 0.023921903 0.08753692 -0.13253275
0.07841118 0.03398425 0.034908522 0.045203347 0.13469839 -0.071828306 -0.06826041 0.09515592
0.16554609 0.094765075 0.00096125324 -0.048830085 0.06900857 0.026938016 0.11877026 0.13046546
-0.07806832 0.060711943 -0.097285464 0.007462832 -0.16518527 0.23903649 -0.077986225 -0.15253684
-0.035620794 -0.0827606 0.14587647 -0.01677332 -0.023311319 0.18466657 -0.032458544 0.16623078
-0.022574902 -0.059221786 -0.022283642 0.012639233 0.10284063 0.0029316153 0.08373783 0.15384783
0.18024708 -0.11817499 0.21395032 -0.022532433 0.00014704562 -0.1076453 0.035456263 0.14563705
-0.018324703 -0.01620703 0.06280072 -0.12645195 -0.028527712 -0.044612624 -0.13230066 0.006879416
0.08423244 0.10346706 0.06597954 -0.10428643 0.057951882 -0.043290485 0.00983682 0.17779863
0.2179096 0.15274511 -0.055892352 0.13215752 0.086416535 0.15335089 0.06834179 0.15868138
-0.033443935 0.09651571 -0.0143896025 0.044500887 0.09234443 0.20109503 0.02422191 -0.18553455
0.06564393 0.014442188 0.054236513 0.0075801676 0.11643014 0.0688567 -0.16977945 0.007640087
-0.12205633 -0.1116951 -0.16998903 -0.038143337 -0.037999 0.07527992 -0.066678956 0.078899026
-0.16822785 -0.04312385 0.043817587 -0.030467747 0.14473818 -0.10426683 -0.100593925 -0.069764145
-0.07890614 -0.06082367 0.0347328 0.12194817 -0.14278552 0.07452113 -0.18632469 -0.049555294
0.13636851 -0.014524293 -0.21502312 0.114839554 -0.09842015 -0.002795528 -0.047643505 -0.11794809
-0.1405263 -0.073806465 -0.013662329 -0.075717814 0.17816019 -0.003957947 -0.070224024 0.13969202
-0.08687491 -0.018577142 -0.0536314 -0.041992795 -0.12854838 0.075377464 0.075435586 -0.09283741
-0.15987468 -0.075517386 -0.0035427664 0.02370552 -0.0698401 -0.021184757 -0.11256586 -0.10117946
0.05492185 -0.05269037 0.11023406 0.0028057115 0.17389764 -0.23683518 0.06860061 0.14042188
0.037183665 0.072103396 -0.14350227 0.009666259 0.018041857 -0.17615785 0.01834407 -0.15423517
0.024814758 0.061268106 0.030893872 -0.010489187 -0.11873464 0.013735434 -0.083689965 -0.13487366
-0.1764402 0.12361372 -0.21400477 0.038066614 0.006470795 0.11449799 -0.01799468 -0.13035291
0.012247566 -0.008656539 -0.06116313 0.12866627 0.027805133 0.050739218 0.1492908 0.0022749915
-0.08205977 -0.12289583 -0.08944292 0.09703011 -0.09616472 0.049777493 -0.025506193 -0.16252959
-0.21816963 -0.15745887 0.074467085 -0.15049042 -0.10393759 -0.1313493 -0.081776276 -0.14898522
0.043168202 -0.09253622 0.001395758 -0.07487767 -0.094900295 -0.18717776 -0.030842459 0.16862577
-0.055812255 -0.0029380694 -0.059212953 -0.006875055 -0.11604812 -0.06472362 0.16949524 -0.008079959

action_model._discrete_distribution.branches.0.bias f4 [2]
00000000: e3bf ffbc 79c0 ff3c
-0.031219428 0.031219708

action_model._discrete_distribution.branches.1.weight f4 [3, 128]
00000000: c82d 913c 40f5 9b3c 4f50 a73c c348 6cbb
00000010: fbf3 863d cf0a 103b 7304 113d 933e 563d
00000020: b334 7e3c d5f4 333d fc27 9c3d 0d19 873d
00000030: 859c 5cbd a194 95bd b474 803c 783c a5bc
00000040: ba53 a4bc 905c bdbc c9c9 ce3d 6464 903d
00000050: bede 22b9 f519 ddbd 7882 86bd c81d 763c
00000060: 9579 983d 62a5 dd3d 2771 99bc a39c 51bd
00000070: ef8c 57ba 2788 873d 5dd2 89bd c500 c7bd
00000080: 6a77 3b3d ba8f 4b3d b607 083b 99ce 57bc
00000090: 89aa ea3c 8b7f 073d d917 0fbd 85b1 163d
000000a0: d68c 623c 0f9d 983d 93b3 b1bc 4c29 393d
000000b0: 9ca5 dd3c f2cf bbbd 6184 fd3c 8e73 fb3c
000000c0: 9fcc 3e3d ddff 543d 96a5 f23d f7ef a9bd
000000d0: 444c 103d c4b9 a03d 3e59 bdba b8a7 863d
000000e0: 6436 09be 7fc1 f03c 77c3 e53d 077d 72be
000000f0: f752 aa3c 1de1 00bd 8fc3 f03d 8863 a13d
00000100: 6bb1 b63d 5e3a 77bd bd99 74bb bfa7 fd3c
00000110: fa0e 0bbe b528 b2bd fc7e cb3d 9be4 37bc
00000120: 041d 39bd fe11 e13d a550 773d 9132 703d
00000130: f317 853c 086a bc3c aaa1 083d db46 783c
00000140: 6cf0 b7bd 2806 1f3d add2 f9bc cf5a f83d
00000150: 5f1e 9a3d 8b3d ba3d ed7c f93c 2cd3 14bc
00000160: 63fe 9c3d 981c 33bd 6d83 373d 3d63 97bd
00000170: 1b1e b73d f7a5 f43d 7305 203d f68b 5b3d
00000180: 4d34 0c3d d39f 5c3d 6fbe 663b 3e98 f7bd
00000190: b581 553d ebb4 23be be62 04bd ceb4 7a3d
000001a0: 06a5 65bd b0ff 92bd 6d15 7ebd b3e7 273d
000001b0: 40d9 1f3a 2ec1 86bd 7edc bc3c b944 083c
000001c0: 163c d7bd 66cc 053e 4c51 383d f4a0 7b3c
000001d0: 11dc cfbd d4e0 2a3c 6ba0 4c3d 1604 313c
000001e0: 4ff2 d53b 1682 a23d bf1f 963c f3ca ebbc
000001f0: 720b a9bc 69ea e5bc ab5b b83d 6310 69be
00000200: 7f86 f33c be74 1abe b81b ecbc 80d7 80be
00000210: e0b1 30be 90a3 f4bd 4933 9cbe 7924 08be
00000220: fc8b be3d 1676 323e 32ed 2cbe f38c cd3d
00000230: 6785 73bd 8f11 463e 8348 2ebe 15b8 3fbe
00000240: f3df c5bd 0bae 7ebe 110f 63be be48 a93b
00000250: 60e2 103e 554a 66bd d2b7 dd3d bf5f 113e
00000260: 031d 823d 595b 1fbe e9a9 233d 0db6 b8bc
00000270: c7af 31be d44c fbbd cf96 3abe 839b 013e
00000280: 307d f5bd a566 9dbe 0b9e 7dbe 197c 883c
00000290: e2f3 2ebc 5528 063e 0f5f 163e add5 94bd
000002a0: e846 3dbe 773c 4d3d e4b1 553e 3f02 0fbe
000002b0: c77f 1cbd 2824 053d bd7d 20be 04f7 0fbe
000002c0: 0ddc 343d 413c 953d 006f adbc 6462 35bd
000002d0: 1606 1a3e 9c47 b83d f22e 6e3a 216b 383c
000002e0: ba59 12bd ccd1 80be 9fad 36bd b67d 3b3d
000002f0: b6c6 f3bc 49d2 6f3d 02cc 38be 41ab 3b3d
00000300: cdc7 b43d de7b bfbd cd13 8fbd 2ba5 0c3e
00000310: 6ea3 be3d ebf7 123e e82b 60be 26b2 a8bd
00000320: c35e 48be 2ec6 10be a085 4abe 0bcd 293e
00000330: c282 24be 59c8 f43d 1866 3dbe e427 aebd
00000340: 5edf 693d 215b 6a3d 31bd 363c ae9d 8d3d
00000350: 2441 ca3d b0f9 c4bd 76cd 80be c643 a0bd
00000360: b313 d83d d918 43be 865b 59be 648a 283d
00000370: e2c4 ce3d 5fbe 423d f8dd 663d 28a2 cf3d
00000380: bbe5 d03d 31e2 f0bd 1cc2 7cbe 9317 3f3d
00000390: 9c50 e9bb 0c5a 473c b1c8 553e 8279 853d
000003a0: d536 923d 6d17 2d3e f015 0cbe e52d 27be
000003b0: 4505 0fbe ec24 e83d 4a7f 64be fd0c f2bd
000003c0: 198e babd 3e3f cf3b 5d97 5dbe 7340 cd3d
000003d0: 0654 563e 4358 413b d29b 71be ef9c 36bd
000003e0: 38c8 1f3e a4a0 063e 058b 62be 764d 50be
000003f0: 8da2 073e bc3c 58be 2de0 91bc dce2 b23b
0.017722026 0.019037843 0.020424036 -0.0036054112 0.06589504 0.0021979099 0.035404634 0.05230577
0.015515494 0.043934662 0.07624814 0.06596575 -0.053860206 -0.07303739 0.015680648 -0.020170435
-0.020059455 -0.023115426 0.10097081 0.07050398 -0.00015532502 -0.107959665 -0.06567854 0.015021749
0.07445065 0.1082256 -0.018730713 -0.05117477 -0.00082226 0.06617766 -0.06729577 -0.09716944
0.04576818 0.049697615 0.002075655 -0.013171815 0.02864577 0.03308062 -0.034934852 0.03679039
0.013827523 0.074518315 -0.021692073 0.0452054 0.027056508 -0.09170522 0.030946912 0.03069475
0.04658186 0.052001823 0.11847989 -0.08297723 0.035228983 0.07847932 -0.0014446152 0.065749586
-0.13399655 0.029389141 0.112189226 -0.23680507 0.020791514 -0.031464685 0.1175605 0.07880312
0.089205585 -0.060358398 -0.003732308 0.030963777 -0.13579932 -0.086991705 0.0993633 -0.011223937
-0.045193687 0.1098976 0.060379643 0.058641974 0.016246771 0.022999778 0.0333573 0.015153612
-0.08981404 0.03882423 -0.030495966 0.12126695 0.07525324 0.0909377 0.030455077 -0.00908355
0.07665708 -0.04372844 0.04480307 -0.07391975 0.08941289 0.11945718 0.039067697 0.053600274
0.034229565 0.053863358 0.0035208722 -0.12089585 0.05212565 -0.15986983 -0.03232073 0.061207585
-0.05606558 -0.07177675 -0.062032152 0.04099245 0.00060977414 -0.06579815 0.023054358 0.008317166
-0.10509507 0.13066253 0.044999406 0.015358198 -0.10149396 0.01042958 0.049957674 0.010804197
0.0065291296 0.07934968 0.018325685 -0.028783297 -0.02063534 -0.028065877 0.09001859 -0.22760157
0.029727219 -0.15083596 -0.028821811 -0.25164413 -0.17255354 -0.119452596 -0.30507877 -0.13295163
0.09304044 0.17427859 -0.16887358 0.100366496 -0.059453394 0.19342636 -0.17019849 -0.18722565
-0.096618555 -0.2487108 -0.22173716 0.0051661422 0.14148855 -0.056223232 0.108260766 0.1419668
0.0635319 -0.1556219 0.03995696 -0.022547746 -0.1735221 -0.12270513 -0.18221591 0.1265698
-0.11986768 -0.30742374 -0.2476732 0.016660737 -0.010678263 0.13101323 0.146847 -0.07267318
-0.1848408 0.050106492 0.20868641 -0.139657 -0.038207795 0.032505184 -0.15672965 -0.14059073
0.04415517 0.07286883 -0.021171093 -0.044283286 0.15041384 0.089980334 0.0009085975 0.01125601
-0.0357301 -0.25160062 -0.04459917 0.045774184 -0.029757839 0.058550153 -0.18046573 0.045817617
0.088271715 -0.09349798 -0.069861986 0.13734882 0.093085155 0.14352386 -0.21891749 -0.08237104
-0.19567399 -0.141381 -0.19777536 0.16582124 -0.16065505 0.11952276 -0.18495977 -0.08503702
0.057097785 0.057215814 0.011153505 0.06914841 0.09875706 -0.096179366 -0.25156754 -0.07825427
0.10550632 -0.19052447 -0.2122632 0.041147605 0.10096146 0.047544833 0.05636403 0.10138351
0.102000676 -0.117618926 -0.24683422 0.04665334 -0.007120205 0.012167465 0.20877339 0.065173164
0.07139365 0.16903467 -0.13680243 -0.16326101 -0.13966854 0.11335167 -0.22314182 -0.118188836
-0.09109134 0.0063246777 -0.21639772 0.10022058 0.2093049 0.002950207 -0.23594597 -0.044583257
0.15603721 0.13147217 -0.22123344 -0.20342049 0.13245602 -0.21116918 -0.01780709 0.0054591727

action_model._discrete_distribution.branches.1.bias f4 [3]
00000000: bb14 04bd ded3 eebb 5ccd 603d
-0.032246333 -0.00728844 0.054883346
