Assets/brains/CarAI14.onnx (onnx, 96846 bytes, 9 tensors)

discrete_act_size_vector f4 [1, 2]
0	0x40000000	2.0
1	0x40400000	3.0

network_body._body_endoder.seq_layers.0.weight f4 [128, 40]
0	0xbe5c91a0	-0.21539927
1	0xbdc13c5c	-0.09435341
2	0x3c11b4a6	0.008893168
3	0xbdabd31a	-0.08389874
4	0xbe06d686	-0.13167772
5	0xbe32f1df	-0.17475079
6	0xbe1b643f	-0.1517496
7	0x3d8f65db	0.07001849
8	0xbdc6ec1b	-0.09713002
9	0x3cf0db32	0.029401395
10	0x3e6b4210	0.2297442
11	0x3e11dba1	0.14243938
12	0x3eb07529	0.34464386
13	0xbe457da4	-0.1928621
14	0x3e862c61	0.26205733
15	0x3de4e2e5	0.11176089
16	0x3d9de611	0.07709897
17	0xbd400327	-0.046878006
18	0x3d68ec3e	0.056865923
19	0xbe04cb57	-0.12968193
20	0x3e58c6d6	0.211696
21	0x3e965142	0.2935887
22	0xbe56f7af	-0.20992921
23	0x3cbc0989	0.022953765
24	0xbe1d2f74	-0.15350133
25	0x3e24a2bd	0.16077705
26	0x3db3e48f	0.087838285
27	0xbe3cbbaf	-0.1843097
28	0x3e80ce9d	0.25157633
29	0xbd2acaed	-0.04169743
30	0xbe6600d8	-0.2246126
31	0xbbc6ca3a	-0.0060665878
32	0x3d1fcb43	0.039012205
33	0xbe99b4a4	-0.3002063
34	0x3e0f1096	0.13971171
35	0x3df60daa	0.12014325
36	0x3bf251a2	0.0073949853
37	0x3e8b9d03	0.27268228
38	0x3d9e99e3	0.07744195
39	0xbcc0af1b	-0.023520997
40	0xbe860404	-0.2617494
41	0x3d8fe889	0.070267744
42	0xbdffb5d1	-0.124858506
43	0x3decdd4f	0.11565649
44	0xbcab7717	-0.02093081
45	0x3dba034f	0.09082662
46	0x3d9216a9	0.07133228
47	0xbe30b4b1	-0.17256428
48	0x3e5209b2	0.20511511
49	0xbe6e0875	-0.23245414
50	0x3d7cb3e6	0.061695002
51	0x3e827554	0.2548014
52	0xbe28d45b	-0.16487257
53	0xbbf6640c	-0.0075192507
54	0xbe0229e4	-0.12711293
55	0x3d1f6c3c	0.03892158
56	0xbdd73869	-0.10508806
57	0xbe42bd66	-0.19017562
58	0x3d16d99a	0.036828615
59	0xbb026a60	-0.001989983
60	0xbeb515b4	-0.3536812
61	0x3e019313	0.1265376
62	0x3df0d474	0.11759272
63	0xbe4b7140	-0.1986742
64	0x3ea3126e	0.31849998
65	0xbc9a1766	-0.018809985
66	0xbd13e99b	-0.036111455
67	0xbdcb9b64	-0.09941748
68	0xbd844d84	-0.064600974
69	0x3c0fdf3e	0.008781252
70	0xbd1704ae	-0.036869697
71	0xbe4c59c2	-0.19956115
72	0xbe09f1d3	-0.13471155
73	0xbc312cb8	-0.010813884
74	0xb9461037	-0.00018888792
75	0x3db39b3c	0.08769843
76	0x3de2a555	0.11066691
77	0xbd841a67	-0.06450348
78	0x3e07beff	0.13256453
79	0x3d5dd246	0.05415561
80	0xbe3c3bb5	-0.18382151
81	0x3e2ca031	0.16857983
82	0xbde78df6	-0.11306374
83	0x3ccd6eaa	0.025077183
84	0xbeeee6c5	-0.46660438
85	0xbd0cf7cb	-0.034416
86	0x3df96ac6	0.121785685
87	0x3dc6f79c	0.097151965
88	0xbd9401ac	-0.072268814
89	0x3c4710a4	0.0121499635
90	0x3e0d7e25	0.13817652
91	0xbd7ad9bd	-0.061242808
92	0x3dd3af7b	0.103362046
93	0xbe3093c0	-0.17243862
94	0xbc90f5a5	-0.017695257
95	0x3e2b251f	0.1671338
96	0x3e19a40b	0.15003984
97	0xbe0702c0	-0.13184643
98	0x3e271dc0	0.16319942
99	0x3eb75a32	0.35811
100	0xbe185c96	-0.14879069
101	0x3eb0a4f6	0.34500855
102	0xbe51d8a7	-0.20492803
103	0x3be16b22	0.0068792263
104	0x3e69fac5	0.22849567
105	0xbdd8802a	-0.1057132
106	0xbece2e8d	-0.4026989
107	0x3dc4bfcc	0.09606895
108	0xbd14fdca	-0.036374845
109	0xbe1aa7d5	-0.15103085
110	0xbdcc28b1	-0.09968699
111	0xbda328bb	-0.07966753
112	0x3e5cc892	0.21560887
113	0x3e721836	0.23642048
114	0xbecfd6c0	-0.4059353
115	0xbe3a4004	-0.18188483
116	0xbce2592a	-0.027630407
117	0x3e0a3f22	0.13500646
118	0xbdf9b9e6	-0.121936604
119	0xbe8a0766	-0.2695877
120	0xbc99d184	-0.018776663
121	0x3deef47b	0.11667725
122	0xbea29f2b	-0.3176206
123	0x3da4edcb	0.08053168
124	0xbe446834	-0.19180375
125	0xbcaf76df	-0.021418987
126	0xbd27861e	-0.04089939
127	0xbe4b6873	-0.19864063
128	0x3db36fbf	0.08761548
129	0xbda4802c	-0.08032259
130	0x3e01407e	0.12622258
131	0x3ce0e285	0.027451763
132	0xbdf560a2	-0.11981322
133	0x3e857d9a	0.2607239
134	0xbc1ffc75	-0.00976478
135	0xbd18d458	-0.03731188
136	0x3e830d45	0.2559606
137	0x3d28f046	0.041244768
138	0xbe35b190	-0.17743516
139	0xbd922c1c	-0.071373194
140	0xbece0ef4	-0.40245783
141	0x3e11c79d	0.14236303
142	0x3ddb5c27	0.10710936
143	0xbd002cb0	-0.031292617
144	0x3e571dcd	0.21007462
145	0x3e12061f	0.14260148
146	0xbdc77866	-0.09739761
147	0x3def7501	0.116922386
148	0x3dfe5f90	0.12420571
149	0x3db12e38	0.08651394
150	0x3e01d9f5	0.126808
151	0xbd99ed69	-0.075159855
152	0x3d1c275b	0.03812347
153	0xbd69e2a0	-0.057100892
154	0x3db9acea	0.09066184
155	0x3d3904c2	0.045170553
156	0x3e5fd191	0.21857287
157	0xbe0eff0b	-0.13964479
158	0x3e6757ef	0.22592138
159	0x3c9ea8ef	0.019367663
160	0x3d7029d1	0.05863363
161	0x3e6e6813	0.23281889
162	0x3e4d47f6	0.20046982
163	0xbdaf5c12	-0.08562483
164	0xbe8264aa	-0.25467426
165	0xbdfe34f1	-0.124124415
166	0xbebf8aba	-0.37410527
167	0x3ea3e330	0.32009268
168	0x3d2ad2f0	0.041705072
169	0x3e241e85	0.16027267
170	0xbe524865	-0.20535429
171	0x3dba0444	0.09082845
172	0x3dc3afe2	0.09555031
173	0xbed929e8	-0.42414784
174	0xbe641019	-0.22271766
175	0xbbaa7c5c	-0.005202813
176	0x3d4e8a22	0.050424702
177	0xbde0856d	-0.10962949
178	0x3d6eb523	0.058278214
179	0x3d5df3ec	0.0541877
180	0x3eefcc0d	0.46835366
181	0xbe7d1501	-0.24715044
182	0x3d57065e	0.052496307
183	0xbd7b58f0	-0.061364114
184	0x3d125cc8	0.035733014
185	0xbd96d9bc	-0.07365748
186	0x3ea8d79b	0.32976994
187	0x3d9066a2	0.07050826
188	0xbcf2aa21	-0.02962214
189	0x3d92c2d8	0.0716607
190	0x3d8ecc40	0.06972551
191	0xbe5eade5	-0.21746023
192	0x3e5764f0	0.21034598
193	0xbc4d0cfa	-0.012515301
194	0x3e7db9da	0.24777928
195	0xbd55ac01	-0.05216599
196	0xbd71b6c6	-0.059012197
197	0x3df390aa	0.11892827
198	0x3ddb0a43	0.10695317
199	0x3e25ceef	0.1619222
200	0xbee9c168	-0.4565537
201	0x3e4845a0	0.1955781
202	0xbd06664b	-0.032812398
203	0x3c8d3f32	0.017242048
204	0x3de9ad0d	0.1140996
205	0x3ec82993	0.3909422
206	0xbbafcc38	-0.005364921
207	0xbe2787c1	-0.1636038
208	0x3e58dcdf	0.21178006
209	0x3d202959	0.039101932
210	0x3e98f472	0.29873997
211	0x3dfa786c	0.1223
212	0x3e951df1	0.29124406
213	0xbdb360f7	-0.08758729
214	0x3e2bf63c	0.1679315
215	0xbe5c717b	-0.21527664
216	0xbc865d76	-0.016401988
217	0x3cd69991	0.026196273
218	0x3d91c248	0.07117134
219	0x3d8f8194	0.07007137
220	0xbc35b1d4	-0.011089761
221	0xbd1e89f7	-0.038705792
222	0x3d961ddd	0.07329915
223	0xbd3c392e	-0.04595297
224	0x3de4b591	0.111674435
225	0xbd661556	-0.05617269
226	0x3e3858a4	0.18002564
227	0xbe556cfa	-0.20842353
228	0xbe232dbd	-0.15935417
229	0x3dda523c	0.10660216
230	0xbe68400f	-0.22680686
231	0xbd8c1d2a	-0.068415
232	0xbd33af14	-0.04386814
233	0xbbe29fe7	-0.0069160345
234	0xbe24144b	-0.16023366
235	0x3d287ecd	0.04113655
236	0x3d8fdfb9	0.070250936
237	0xbe8c7251	-0.27430966
238	0xbd8586cf	-0.06519853
239	0xbd6f7283	-0.058458816
240	0xbded01c4	-0.115726024
241	0xbe90ada6	-0.28257483
242	0x3d8d6576	0.06904118
243	0xbb10d48d	-0.0022099346
244	0xbe5bce4b	-0.21465413
245	0x3e1c9f10	0.15295053
246	0xbe16cf08	-0.14727414
247	0xbd6f156b	-0.058370035
248	0x3e150ff0	0.14556861
249	0xbcd9c307	-0.026582254
250	0xbee7bbcc	-0.45260465
251	0x3e476e8d	0.19475766
252	0xbdee289e	-0.11628841
253	0x3cb4dfd9	0.022079395
254	0x3e2f0ecd	0.1709549
255	0xbeddc0f7	-0.43311283

network_body._body_endoder.seq_layers.0.bias f4 [128]
0	0x3b5a6c90	0.0033328868
1	0x3d7c768a	0.061636485
2	0x3d393585	0.045217056
3	0xbbbed272	-0.005823427
4	0x3d583a7b	0.052790146
5	0x3cc14524	0.02359254
6	0x3c768eb0	0.015048668
7	0x3d17f639	0.03710005
8	0xbc55690b	-0.0130255325
9	0x3becf27a	0.007231054
10	0x3cc56f83	0.024101024
11	0x3cb05eb3	0.021529531
12	0x3d0265c1	0.03183532
13	0x3d3e1be4	0.046413317
14	0x3d381766	0.04494419
15	0x3b4a4e9a	0.0030869604
16	0x3cc7138e	0.024301317
17	0x3c201eb2	0.009772943
18	0x3a97d756	0.0011584561
19	0x3ca36254	0.019944347
20	0x3d21425d	0.03936993
21	0x3d0a2e13	0.033735346
22	0x3c3759d3	0.011190849
23	0x3c6ed3f4	0.014576901
24	0xb99697d3	-0.00028723347
25	0x3d9ff195	0.0780975
26	0x3d582aad	0.052775074
27	0x3d1bc36a	0.03802816
28	0xbba2ebdc	-0.0049719643
29	0x3ced8c61	0.028997602
30	0x3cf893a0	0.03034383
31	0x3d00f8d4	0.0314873
32	0xbdc64eb5	-0.09682981
33	0x3d1fcb0e	0.039012007
34	0x3c900c68	0.01758404
35	0x3cfe9d2b	0.031080803
36	0x3d4baed1	0.049727265
37	0x3d034424	0.032047406
38	0x3d890e22	0.06692149
39	0x3c82bd48	0.015959397
40	0x3d14db49	0.03634194
41	0x3d226ce1	0.039654616
42	0x3d1e3b91	0.038631026
43	0xbba77eec	-0.005111566
44	0x3bbb479c	0.0057153236
45	0x399e60ad	0.00030208137
46	0x3c6fc3f8	0.014634125
47	0x3d5ab3a5	0.05339398
48	0x3cab73ae	0.020929184
49	0x3d54b9e0	0.051935077
50	0xbd0b570b	-0.034018558
51	0x3d2bb024	0.041916028
52	0x3bdc1bfa	0.0067172023
53	0x3c40b0e2	0.011760922
54	0x3ccb645a	0.024828125
55	0x3c7b04af	0.015320941
56	0x3d26485b	0.040596347
57	0x3d2a6967	0.041604426
58	0x3cde0566	0.027102184
59	0x3c1cd37e	0.009571908
60	0x3cea1fcc	0.028579615
61	0x3d7d975b	0.061911922
62	0x3baa23b3	0.005192244
63	0x3d2835db	0.041066986
64	0x3c793d78	0.015212409
65	0x3c9b91a5	0.018990347
66	0x3c885989	0.016644256
67	0x3cb50989	0.022099273
68	0xbb3e1141	-0.0029001983
69	0x3d12c316	0.03583058
70	0xbb3df5b3	-0.002898556
71	0x3ca0f6fa	0.019649018
72	0xbbcedc08	-0.006312851
73	0x3d142f2d	0.036177803
74	0x3a299af4	0.0006469928
75	0x3b86a2a0	0.004108742
76	0x3d46dd66	0.048550986
77	0x3d3696b3	0.04457731
78	0x3db21581	0.08695508
79	0x3d1b0ea9	0.037855778
80	0x3ceebb14	0.02914194
81	0xbc0421f5	-0.008064737
82	0x3d29611b	0.041352373
83	0xbcb1565a	-0.021647621
84	0x3bca8dc6	0.0061814515
85	0x3cc1cd2c	0.023657404
86	0x3d0f2f7f	0.034957405
87	0x3dd034f2	0.101663485
88	0xbd4093ae	-0.04701584
89	0xbc3261ec	-0.010887604
90	0x3c42f73b	0.011899765
91	0x3d29c7ed	0.04145043
92	0x3d176477	0.036961045
93	0x3ca34c8d	0.019933963
94	0x3d0166e6	0.031592272
95	0x3ba087a3	0.0048989817
96	0x3c8b7aeb	0.017026385
97	0x3d100960	0.03516519
98	0x3ce2326c	0.027611934
99	0x3c8aac4c	0.01692786
100	0x3cf3637f	0.02971053
101	0x3d73d1c7	0.05952623
102	0x3d32a79e	0.043616883
103	0x3cbbff28	0.022948816
104	0xbc2763e6	-0.010216689
105	0x3d0fdec5	0.03512456
106	0x3c78f2c2	0.015194597
107	0x3c94492d	0.0181013
108	0x3d7a6376	0.06113001
109	0x3ced0299	0.028931903
110	0x3b7c73aa	0.003852109
111	0xbc2bd5ad	-0.010487956
112	0x3d339949	0.043847356
113	0x3c41cd2b	0.011828701
114	0x3cdbb923	0.026821679
115	0xbc1f6c9d	-0.009730485
116	0xba8d1f90	-0.0010766853
117	0x3ce29c24	0.027662344
118	0xbbafdd4f	-0.005366958
119	0xbcaac7aa	-0.02084716
120	0x3d9ba446	0.07599692
121	0x3c48f2e3	0.01226494
122	0x3c2558fe	0.010092018
123	0xbc4bf73d	-0.012449083
124	0x3c94b70a	0.018153686
125	0x3cdfcf44	0.027320512
126	0x3d7cf025	0.061752457
127	0x3cf76329	0.03019865

network_body._body_endoder.seq_layers.2.weight f4 [128, 128]
0	0x3d138e3c	0.036024317
1	0x3e471aa8	0.19443762
2	0x3def78a4	0.11692932
3	0xbd88f6a5	-0.06687669
4	0x3ba8331c	0.005133046
5	0x3e1cba26	0.15305385
6	0xbc1cd9b9	-0.0095733935
7	0xbc059446	-0.008153027
8	0xbd37d03a	-0.044876315
9	0x3d301ac0	0.04299426
10	0x3c870e21	0.01648623
11	0x3e1b05cd	0.15138932
12	0x3df27dbc	0.11840388
13	0x3d8c1321	0.06839586
14	0x3d4e3f01	0.050353054
15	0x3e384e64	0.17998654
16	0x3db3d42a	0.087807015
17	0xbd863761	-0.065535314
18	0xbbe344fa	-0.006935713
19	0xbe177fe0	-0.14794874
20	0xbdf094d1	-0.117471345
21	0x3d705f6b	0.058684748
22	0xbcbb566a	-0.022868354
23	0x3d8e3bca	0.069449976
24	0xbd7706e3	-0.060309302
25	0xbe9869f4	-0.29768336
26	0x3e8f07fb	0.27935776
27	0x3db39501	0.087686546
28	0x3d73c58f	0.05951458
29	0x3da92f1d	0.08260939
30	0xbdccc8d4	-0.099992424
31	0x3c54dc62	0.0129919965
32	0x3e3182f7	0.17335115
33	0x3e3c92f0	0.18415427
34	0x3dd550fe	0.10415839
35	0x3d88d2ff	0.06680869
36	0x3d889fe6	0.06671123
37	0xbd9fba7d	-0.07799242
38	0x3de265a1	0.110545404
39	0x3e2a87a9	0.16653313
40	0x3e0d8a0c	0.13822192
41	0x3e04769d	0.12935872
42	0xbddb1788	-0.106978476
43	0x3c09c338	0.00840836
44	0x3e0d4e95	0.13799508
45	0xbdd5addc	-0.10433552
46	0xbb46c9c9	-0.0030332676
47	0xbddf1111	-0.10891927
48	0xbc31ed08	-0.010859735
49	0xbd937928	-0.07200843
50	0x3c4f655c	0.012658443
51	0x3def5384	0.11685851
52	0x3d8f5dc8	0.07000309
53	0x3dde6c60	0.10860515
54	0xbd8022f8	-0.0625667
55	0x3db220d0	0.08697665
56	0xbe21c06c	-0.1579606
57	0x3d8f604d	0.0700079
58	0x3dfbd0e1	0.122957
59	0xbc51ec10	-0.012812629
60	0xbdf36ab5	-0.11885587
61	0xbcbac4f7	-0.022798998
62	0x3e52aeba	0.20574465
63	0xbe302c9c	-0.17204517
64	0xbdeb28ed	-0.11482415
65	0x3e591b65	0.21201856
66	0x3d1faba2	0.03898204
67	0x3e426e50	0.18987393
68	0x3a3f8b19	0.0007306799
69	0x3d6267d3	0.055274796
70	0x3e08ed56	0.13371786
71	0xbe37d632	-0.17952803
72	0x3d488d0e	0.048962645
73	0xbe24cb7d	-0.1609325
74	0x3e661815	0.22470124
75	0xbdac04e8	-0.08399373
76	0xbd8aaeb8	-0.06771606
77	0x3dacc848	0.08436638
78	0xbe131d3a	-0.14366618
79	0xbc6efed3	-0.014587122
80	0xbdcb74bf	-0.09934377
81	0x3cc65d96	0.024214547
82	0x3d16d6f3	0.036826085
83	0xbb932b45	-0.004491242
84	0x3d369f58	0.044585556
85	0x3b5421df	0.0032368822
86	0xbcbe4741	-0.023227336
87	0x3e33d165	0.17560346
88	0xbd9612b1	-0.07327784
89	0x3e1f24b1	0.1554134
90	0x3dcb069b	0.09913369
91	0x3e00ebc8	0.12589943
92	0x3e367491	0.17817904
93	0xbe3eccd7	-0.18632828
94	0x3d8dcbb3	0.06923618
95	0xbe623127	-0.22089063
96	0x3e648839	0.2231759
97	0x3dd97d52	0.10619606
98	0x3b2d9a62	0.0026489724
99	0xbd0a128c	-0.033709094
100	0xbda79caa	-0.08184178
101	0x3da9fadf	0.08299803
102	0xbcbbaa95	-0.022908488
103	0xbd8faeb8	-0.07015747
104	0x3dedf6fc	0.11619374
105	0x3d44859a	0.047978975
106	0xbd4e26ec	-0.050330088
107	0xbc926165	-0.017868707
108	0xbdc1a772	-0.09455766
109	0x3b41aea4	0.0029553557
110	0xbcfb9bb2	-0.03071389
111	0x3c98784f	0.018612055
112	0xbd0aa7b6	-0.033851348
113	0xbbb75536	-0.0055948747
114	0xbc43f70e	-0.011960758
115	0xbd0960ab	-0.033539455
116	0xbe19c980	-0.15018272
117	0xbcfef9d8	-0.031124994
118	0x3d9e18d0	0.07719576
119	0x3e1c5116	0.15265307
120	0x3c26f4cf	0.010190203
121	0xbe5617b0	-0.20907474
122	0x3da7a257	0.08185261
123	0x3dcd7158	0.10031384
124	0x3d6e2f96	0.05815085
125	0xbd9ff99e	-0.078112826
126	0xbd1791a4	-0.037004128
127	0xbe0ec446	-0.1394206
128	0x3e02d20d	0.1277544
129	0xbe1d508f	-0.15362762
130	0xbc49d1a2	-0.012318047
131	0xbd7de01b	-0.0619813
132	0x3e10492a	0.1409041
133	0x3dcb1620	0.099163294
134	0xbe66308a	-0.22479454
135	0x3cd2960c	0.025706314
136	0x3dbf3e56	0.093380615
137	0xbccdb73d	-0.025111789
138	0x3d28b25b	0.041185718
139	0xbe2b9ef9	-0.16759862
140	0xbca93e62	-0.02065963
141	0x3ce17217	0.027520223
142	0xbd92706f	-0.07150351
143	0xbd319cee	-0.04336255
144	0xbc65a40d	-0.014016164
145	0x3cd8d065	0.026466558
146	0x3e879b6d	0.26485768
147	0x3e39ae70	0.18132949
148	0x3d910ade	0.07082151
149	0x3d9e8e21	0.07741953
150	0x3d8ca7b9	0.06867928
151	0xbd07a4af	-0.03311604
152	0xbda86d54	-0.08223978
153	0xbce7f14e	-0.028313305
154	0xbe1f8055	-0.15576299
155	0xbe7d0162	-0.24707559
156	0xbbad5348	-0.005289469
157	0xbd382fcf	-0.04496747
158	0x3e7112fb	0.23542397
159	0x3d0603db	0.03271852
160	0xbd6fa88f	-0.05851036
161	0x3e8aa3e7	0.27078173
162	0xbcd84083	-0.02639795
163	0xbd7e6200	-0.06210518
164	0x3e577eef	0.21044515
165	0x3e82e650	0.2556634
166	0xbd718938	-0.058968753
167	0xbda9063f	-0.082531445
168	0x3e5aefdf	0.21380566
169	0xbd150fc2	-0.03639198
170	0xbdb61817	-0.088913135
171	0xbe2dfa60	-0.16990042
172	0xbda9ca69	-0.0829056
173	0x3ccc9525	0.024973461
174	0x3d6911bf	0.05690169
175	0x3d858efa	0.06521411
176	0xbd98e559	-0.074656196
177	0x3e9e0895	0.30865923
178	0x3daf470e	0.085584745
179	0x3e188455	0.1489423
180	0x3de8d71a	0.11369152
181	0x3e496301	0.19666673
182	0xbcfcfccd	-0.030882264
183	0xba8ca5e3	-0.001073059
184	0xbdb867ea	-0.09004195
185	0xbe574817	-0.21023594
186	0x3d799568	0.0609335
187	0xbdb7d9a0	-0.089770555
188	0x3d0bc329	0.034121666
189	0xbbcddce5	-0.006282436
190	0x3d492533	0.04910774
191	0x3e1770c7	0.14789115
192	0xbe45a90e	-0.1930277
193	0x3e2a67c6	0.16641149
194	0x3d3b598a	0.045739688
195	0xbe0397b6	-0.12850842
196	0xbd786ac0	-0.06064868
197	0xbbbd76f3	-0.005782002
198	0x3dce7129	0.10080177
199	0x3d6f8242	0.058473833
200	0x3ca37749	0.01995434
201	0x3e2c9691	0.16854312
202	0x3e150156	0.14551291
203	0x3c906324	0.017625399
204	0x3cecfbbc	0.02892863
205	0x3d338ef8	0.043837517
206	0xbd21fe5f	-0.039549228
207	0xbd78b1c4	-0.060716406
208	0x3db76234	0.08954278
209	0x3d818f7a	0.06326194
210	0xbbeb7e0a	-0.007186656
211	0xbd1e6f3a	-0.038680293
212	0x3e153ad0	0.14573216
213	0xbe050fd5	-0.1299432
214	0x3e361a58	0.17783487
215	0xbe53d6c8	-0.20687401
216	0xbdee1869	-0.116257496
217	0xbcbeb107	-0.023277773
218	0x3cbfc9ef	0.02341172
219	0x3e873ea6	0.26414984
220	0xbde75f26	-0.11297445
221	0x3d2defea	0.042465128
222	0xbe72eff5	-0.23724349
223	0x3c0755ee	0.008260233
224	0x3d4dd208	0.05024913
225	0x3d996d87	0.07491594
226	0x3ccfc25a	0.025361229
227	0x3e6af33c	0.22944349
228	0xbad1512d	-0.0015969627
229	0x3c9bc3c0	0.01901424
230	0xba8cc752	-0.0010740554
231	0x3d668277	0.056276765
232	0xbd7e5dfa	-0.06210134
233	0x3c192497	0.009347103
234	0x3d8d604f	0.06903135
235	0xbd2be017	-0.041961756
236	0x3dde4421	0.10852838
237	0xbce5a5f3	-0.028033232
238	0x3e4afb74	0.19822484
239	0xbda870e9	-0.08224661
240	0x3d17d03f	0.037063833
241	0xbd236c16	-0.039898
242	0x3bed3797	0.007239293
243	0x3cbeb765	0.023280809
244	0xbc112a6a	-0.00886021
245	0x3cf1e539	0.029528247
246	0xbdd5e9ec	-0.10445008
247	0x3e07f27c	0.13276094
248	0xbd2ea1ff	-0.04263496
249	0xbe2232d8	-0.15839708
250	0xba460841	-0.00075543305
251	0x3d02f71a	0.031973936
252	0xbdafe0f8	-0.08587831
253	0xbdf770c1	-0.12082053
254	0xbdd7ce47	-0.10537391
255	0x3d23966c	0.039938375

network_body._body_endoder.seq_layers.2.bias f4 [128]
0	0xbbb6da3d	-0.0055802152
1	0x3c766c9d	0.015040544
2	0x3c9f4de4	0.01944632
3	0x3aa2aedb	0.001241173
4	0x3d208af4	0.039195016
5	0x3ccbfe41	0.024901511
6	0x3d103a8a	0.035212077
7	0x3b072040	0.0020618588
8	0x3d3209e8	0.04346648
9	0x3bed98b1	0.0072508682
10	0x3c180d2d	0.009280485
11	0x3cb416a0	0.021983445
12	0x3d0276d9	0.031851623
13	0x3d2dd4d4	0.042439297
14	0x3c540ea5	0.012942945
15	0x3d37b559	0.04485068
16	0x3cae8819	0.02130513
17	0x3b7f5140	0.003895834
18	0x3d23b791	0.039969984
19	0x3cad5d61	0.02116269
20	0x3d0e975b	0.034812313
21	0x3d076b76	0.033061467
22	0x3cfebb85	0.031095276
23	0x3ce6b7bd	0.028163785
24	0x3ceff6f2	0.029292557
25	0x3b28ffc4	0.0025787214
26	0x3ba784bd	0.005112259
27	0xbc143b99	-0.009047412
28	0x3c931502	0.017954353
29	0x3d01ec7b	0.031719666
30	0x3cd0b6df	0.025477825
31	0x3d601d4e	0.054715447
32	0x3d0977a6	0.03356137
33	0x3cad1cac	0.021131836
34	0x3b385dd6	0.0028132102
35	0x3d16b409	0.03679279
36	0x3d2b84db	0.041874748
37	0xbc27123e	-0.01019722
38	0x3c7b79c0	0.015348852
39	0x3c933bdd	0.017972881
40	0x3c91602c	0.017746054
41	0x3d2c5c21	0.04208005
42	0xbb11d268	-0.0022250656
43	0xbbe13e6e	-0.0068738973
44	0x3d2cb8d6	0.04216846
45	0x3cc1f106	0.0236745
46	0x3d046007	0.03231814
47	0x3c3cece7	0.011531091
48	0x3cfb9c8e	0.0307143
49	0x3d66ae75	0.05631872
50	0x3d44c024	0.048034802
51	0x3b148363	0.002266132
52	0x3d2ab201	0.041673664
53	0x3cec645b	0.028856447
54	0x3cbd02ac	0.023072563
55	0x3d2da036	0.042389117
56	0x3d1feb1e	0.039042585
57	0xbac8f32a	-0.0015331258
58	0x3c9d6f07	0.019217981
59	0x3c53cfe0	0.012927979
60	0xbc6258e0	-0.013815135
61	0x3b2eb508	0.0026658196
62	0x3cae873e	0.021304723
63	0x3c842aeb	0.016133746
64	0x3d002a82	0.03129054
65	0x3c17401e	0.009231595
66	0xbb5d3f0b	-0.00337595
67	0xbaa3690d	-0.0012467221
68	0x3c0074b0	0.0078403205
69	0x3d170f00	0.03687954
70	0x3ccf5f81	0.025314094
71	0xbb835c6a	-0.0040088193
72	0x3c4bce51	0.012439326
73	0x3cc6c3c7	0.024263276
74	0x3cb5e040	0.022201657
75	0x3d0a6c5e	0.033794753
76	0xb9e61563	-0.00043884953
77	0x3b9a78be	0.0047141006
78	0x3c98551e	0.018595275
79	0x3d467f8a	0.048461474
80	0x3c581d5b	0.013190593
81	0x3bfc0ec5	0.0076921904
82	0x3c740b36	0.014895251
83	0x3cd946ae	0.02652296
84	0x3c5026b0	0.012704536
85	0x3c37288d	0.011179102
86	0x3c89ecd0	0.016836554
87	0x3bb59a7d	0.005542098
88	0x3ceee67a	0.029162634
89	0x3ca7bb6b	0.02047511
90	0x3c591a2b	0.013250868
91	0x3bbf98f1	0.0058470895
92	0x3cdf0231	0.027222725
93	0x3ccda589	0.025103347
94	0x3d163c63	0.036678683
95	0x3d1160c4	0.035492674
96	0xbc0e4e2e	-0.008685632
97	0x3c776afe	0.0151011925
98	0xbb425716	-0.0029653958
99	0x3d3701ce	0.044679455
100	0x3c9c9032	0.019111726
101	0x3d3d7cfc	0.046261773
102	0x3cf156e4	0.029460378
103	0x3cf27181	0.029595139
104	0x3b9ea8b0	0.0048418865
105	0x3c46bbb7	0.012129716
106	0x3cba5a21	0.022748055
107	0x3d103159	0.03520331
108	0x3cb4748e	0.022028234
109	0x3cca3d46	0.02468742
110	0x3d0e9da0	0.03481829
111	0x3d31745f	0.04332387
112	0x3be6d87c	0.00704485
113	0x3d420ffa	0.047378518
114	0x3d451f0a	0.048125304
115	0x3c27a94e	0.0102332365
116	0x3cd12243	0.025529033
117	0x399fabfa	0.00030454976
118	0xbc81e311	-0.015855344
119	0x3d5f16d5	0.054465134
120	0x3cda715f	0.026665388
121	0x3ccce0ef	0.0250096
122	0x3b967ac6	0.0045922725
123	0x3d124776	0.03571268
124	0x3d206425	0.039158005
125	0x3d12117e	0.035661213
126	0x3d123e41	0.0357039
127	0x3d2c53cc	0.042072102

action_model._discrete_distribution.branches.0.weight f4 [2, 128]
0	0x3cbb64b7	0.022875173
1	0x3db9b859	0.09068365
2	0xbdc0f606	-0.09421925
3	0x3d220f2f	0.03956526
4	0xbe0299c0	-0.12753963
5	0xbd97295d	-0.07380936
6	0xbdc1dff6	-0.09466545
7	0x3da31290	0.07962525
8	0x3d397854	0.04528077
9	0xbc358af5	-0.011080493
10	0xbd8629da	-0.06550951
11	0x3dae69fd	0.085163094
12	0x3d19a75a	0.037513115
13	0xbd102702	-0.03519345
14	0x3d57dc95	0.052700598
15	0x3c491802	0.01227379
16	0xbc942c5e	-0.018087562
17	0xbd452065	-0.048126597
18	0x37091bd4	8.172316e-06
19	0x3cdcae62	0.026938621
20	0xbdc392b7	-0.09549468
21	0xbdc48b25	-0.09596852
22	0xbdafbdb5	-0.085811056
23	0xbdf3b57e	-0.11899851
24	0x3d6570a2	0.05601562
25	0x3d335e85	0.043791313
26	0x3d6f8685	0.058477897
27	0x3c9ce078	0.019150004
28	0x3d2c5ef0	0.042082727
29	0x3cae1229	0.021248894
30	0xbbc95198	-0.00614376
31	0xbbe897c0	-0.007098168
32	0xbd0e1538	-0.034688205
33	0xbc4ad49a	-0.01237979
34	0x3d6c9ccd	0.057766724
35	0xbda11487	-0.078652434
36	0xbc94547f	-0.018106697
37	0x3c5fbc4e	0.013655735
38	0x3d4d64fc	0.050145134
39	0x3dce2cc4	0.10067132
40	0x3a95a4fb	0.0011416966
41	0x3cad3c7b	0.021147003
42	0x3d8fb881	0.07017613
43	0x3d40f5e1	0.04710949
44	0xbd0ea223	-0.034822594
45	0x3d150e6f	0.036390718
46	0x3d90413e	0.07043694
47	0xbdab10e4	-0.08352831
48	0xbd210ccb	-0.03931884
49	0xbba8f99d	-0.0051567093
50	0x3bd214e7	0.006411183
51	0x3d7408c4	0.059578672
52	0xbc95a6c9	-0.018268006
53	0x3c19da77	0.009390465
54	0xbdc00418	-0.09375781
55	0xbdd1f323	-0.10251453
56	0xbd8aa82f	-0.0677036
57	0x3cc2dc5b	0.023786714
58	0x3d4aadb5	0.049482066
59	0xbd468b75	-0.04847284
60	0x3cdad711	0.02671388
61	0x3b1b21b3	0.002367121
62	0xbd806cf1	-0.06270779
63	0xbdbce080	-0.092225075
64	0xbcbf342b	-0.023340305
65	0x3b84ef79	0.0040568677
66	0x3d5dd145	0.054154653
67	0x3daa511d	0.083162524
68	0x3c65ec72	0.014033424
69	0xbd98c421	-0.074592836
70	0xbdfc5240	-0.123203754
71	0x3d71ded3	0.059050392
72	0xbd5c9dba	-0.053861357
73	0xbcd9177d	-0.026500458
74	0xbda141b8	-0.07873863
75	0xbe0557af	-0.1302173
76	0xbcea52ba	-0.0286039
77	0x3bae3399	0.0053162095
78	0xbdb45ba9	-0.08806545
79	0x3c3345a5	0.0109418975
80	0xbd24b4f4	-0.040211633
81	0x3d8fb29e	0.070164904
82	0xbdc6c066	-0.09704666
83	0x3c5d742d	0.013516468
84	0xbd913bff	-0.070915215
85	0x3d5a6753	0.053321194
86	0xbc0e5155	-0.008686383
87	0x3d8aab98	0.0677101
88	0x3cc669aa	0.024220306
89	0x3c556460	0.01302442
90	0xbbf77f1a	-0.0075529935
91	0x3c038799	0.0080279345
92	0x3cdc5e40	0.02690041
93	0xbcfb0719	-0.030643033
94	0x3c86bbb4	0.016446926
95	0xbcb233a7	-0.021753145
96	0x3bb5a978	0.005543884
97	0x3d1c7bcc	0.038204
98	0x3c40a4a5	0.011758004
99	0x3cdb4877	0.026767952
100	0x3de3b9ed	0.11119447
101	0x3c954ffa	0.018226612
102	0xbda452a3	-0.08023574
103	0xbdcfb803	-0.10142519
104	0x3d0d4ea1	0.034498814
105	0x3db3fe5b	0.08788749
106	0xbe00d416	-0.12580904
107	0xbc59868f	-0.01327671
108	0x3c62a1cf	0.0138325235
109	0x3cd28e4f	0.025702624
110	0x3d30c78e	0.04315906
111	0xbd8c0df3	-0.06838598
112	0xbcc75f38	-0.024337396
113	0xbcf1c5c6	-0.029513251
114	0x3c4d2372	0.012520658
115	0x3d2e0058	0.042480797
116	0x3da6096f	0.08107268
117	0x3da5894f	0.0808283
118	0x3d030a08	0.03199199
119	0xbd52f83f	-0.051506277
120	0x3b9aa170	0.004718952
121	0x3d6f8890	0.058479846
122	0x3d29576d	0.04134314
123	0xbcbcdb1b	-0.023053696
124	0xbc8de74f	-0.01732221
125	0xbd8fb05b	-0.07016059
126	0x3b99ba82	0.004691423
127	0x3cb5930e	0.022164848
128	0xbcc26ec8	-0.023734465
129	0xbd980604	-0.074230224
130	0x3da524b9	0.08063645
131	0xbd40a913	-0.04703624
132	0x3e00a894	0.12564307
133	0x3da3b6c0	0.07993841
134	0x3db5f92b	0.08885416
135	0xbd37af35	-0.044844825
136	0xbd44fd74	-0.048093274
137	0x3b05d4f0	0.002042111
138	0x3d65db68	0.056117445
139	0xbdc9e83a	-0.09858747
140	0xbce104e9	-0.027468162
141	0x3cde2a4b	0.027119776
142	0xbd81a59b	-0.06330415
143	0xbd00e7bc	-0.031471
144	0x3b886876	0.0041628433
145	0x3d530caf	0.051525768
146	0xbb12690d	-0.0022340447
147	0xbcbce9f6	-0.02306078
148	0x3db9439a	0.09046097
149	0x3da42288	0.08014399
150	0x3db8e322	0.09027697
151	0x3dc96d07	0.098352484
152	0xbd72134b	-0.05910043
153	0xbd193e2a	-0.0374128
154	0xbd8016cb	-0.062543474
155	0xbcaec2ff	-0.021333216
156	0xbd7488e4	-0.05970086
157	0xbcc078aa	-0.023495037
158	0xbb392e59	-0.0028256385
159	0x3bbc90f2	0.0057545835
160	0x3d171cf9	0.036892865
161	0x3cff5ac4	0.03117121
162	0xbd3fb6ac	-0.04680507
163	0x3d715ba9	0.058925305
164	0xbc157a98	-0.009123467
165	0xbd1bcf68	-0.038039595
166	0xbd8c5224	-0.068516046
167	0xbdae56cb	-0.08512648
168	0xbc33a95b	-0.01096567
169	0xbc5e92f2	-0.013584839
170	0xbd8eb601	-0.06968308
171	0xbd8f640b	-0.070015036
172	0x3c02b3c4	0.00797743
173	0xbc5e2f03	-0.013561013
174	0xbd8590ad	-0.06521735
175	0x3db2b732	0.08726348
176	0x3d4186bc	0.047247633
177	0xbab42e5b	-0.0013746725
178	0x3c3a255a	0.011361444
179	0xbd70790e	-0.058709197
180	0x3cbee43a	0.023302186
181	0xbcd2cc62	-0.025732223
182	0x3da6a4ed	0.08136926
183	0x3de03d31	0.10949171
184	0x3da08602	0.0783806
185	0xbcd2dc1f	-0.025739728
186	0xbdb5f362	-0.08884312
187	0x3d3998e1	0.045311812
188	0xbce05c48	-0.027387753
189	0xbc47de12	-0.012198942
190	0x3d4ae38f	0.049533423
191	0x3dc17fd6	0.09448211
192	0x3bcb0be8	0.0061964877
193	0xbc86ed8d	-0.016470695
194	0xbd5a38ba	-0.053276755
195	0xbd84d0b6	-0.06485121
196	0xbc9805bb	-0.01855742
197	0x3db10e32	0.08645286
198	0x3decf404	0.1156998
199	0xbd74eafd	-0.059794415
200	0x3d598858	0.053108543
201	0x3d113804	0.03545381
202	0x3d996d28	0.07491523
203	0x3dec3519	0.11533565
204	0x3cfd9a95	0.0309575
205	0xbc2c4b36	-0.010515979
206	0x3dc83e26	0.09777479
207	0xbcebb203	-0.028771406
208	0x3d1cee1f	0.038313027
209	0xbdaacdc0	-0.08340025
210	0x3daee4f8	0.08539766
211	0xbc08b604	-0.008344177
212	0x3daa1a5d	0.0830581
213	0xbd85d574	-0.065348536
214	0x3cead3b5	0.028665403
215	0xbd9b078a	-0.07569797
216	0xbca1d30d	-0.019753957
217	0xbcb74c7f	-0.022375343
218	0x3b5ff2ed	0.0034171895
219	0xbcba9615	-0.022776643
220	0xbc42fe16	-0.011901399
221	0x3c92c743	0.017917281
222	0xbc9bc719	-0.019015836
223	0x3cabf43c	0.020990483
224	0xbc401efa	-0.011726135
225	0xbd46d9fc	-0.04854773
226	0xbc6a0428	-0.0142832175
227	0xbc5f5f77	-0.0136336
228	0xbdea2615	-0.11433045
229	0xbc973b2e	-0.018460836
230	0x3db42854	0.087967545
231	0x3d97be5e	0.074093565
232	0xbd3f235f	-0.046664592
233	0xbd6dd143	-0.058060896
234	0x3dbf2e35	0.09334985
235	0x3bfea306	0.0077708988
236	0xbc78b772	-0.0151804555
237	0xbcaea93a	-0.021320928
238	0xbc8e0c47	-0.017339839
239	0x3db9f21a	0.0907938
240	0x3c94b20a	0.018151302
241	0x3ca13ab7	0.019681318
242	0xbc6bef39	-0.014400297
243	0xbd45c372	-0.048282094
244	0xbdb45520	-0.08805299
245	0xbd40d860	-0.04708135
246	0xbd3601bf	-0.04443526
247	0x3d545a08	0.051843673
248	0xbccfecae	-0.025381412
249	0xbd7221fd	-0.059114445
250	0xbd0bd447	-0.03413799
251	0x3cdb0d4f	0.026739744
252	0x3c39a117	0.011329911
253	0x3d912d4b	0.07088717
254	0xbc3c950d	-0.011510146
255	0xbce37f52	-0.027770672

action_model._discrete_distribution.branches.0.bias f4 [2]
0	0xbb8c88cb	-0.004288768
1	0x3b8c88d4	0.004288772

action_model._discrete_distribution.branches.1.weight f4 [3, 128]
0	0xbcf9c6bf	-0.030490277
1	0x39df7c4a	0.00042626477
2	0x3d5037c5	0.050834436
3	0x3b9d446e	0.004799417
4	0x3d65e637	0.056127753
5	0x3d052c5e	0.032513015
6	0xbd135543	-0.035969984
7	0xbb5ccd02	-0.003369153
8	0xbb96c1aa	-0.0046007233
9	0x3cda26a6	0.026629757
10	0x3d371256	0.04469522
11	0xbd8ed4c2	-0.06974174
12	0xbdd7f674	-0.10545054
13	0xbd632139	-0.055451605
14	0xbd467c9b	-0.048458677
15	0xba9a3c65	-0.0011767267
16	0xbdd6f82d	-0.104965545
17	0x3d4e8696	0.05042132
18	0xbd825439	-0.063637204
19	0xbd1220b5	-0.035675723
20	0x3d2587b1	0.04041261
21	0x3d6edb8c	0.058314845
22	0x3d2ccd5d	0.042188037
23	0x3ceb092f	0.028690903
24	0xbd4bf477	-0.049793687
25	0xbb2b9150	-0.0026179142
26	0xbd9f1f8b	-0.07769688
27	0xbd6e7417	-0.05821618
28	0xbcc9ef3c	-0.024650209
29	0xbdb0586b	-0.086106144
30	0x3d17cb08	0.03705886
31	0xbc35af4b	-0.011089156
32	0x3c109157	0.008823714
33	0xbd591a4f	-0.053003605
34	0x3c6cf17f	0.014461874
35	0x3c98bee0	0.018645704
36	0xbcdd0fda	-0.026985098
37	0x3d422bd3	0.047405075
38	0xbd2d6d13	-0.04234035
39	0xbd9762b9	-0.07391877
40	0x3b20a3be	0.002451166
41	0xbc363229	-0.011120358
42	0xbd19edd3	-0.037580322
43	0x3b551d79	0.0032518788
44	0x3c387048	0.011257239
45	0xbd8dda69	-0.06926424
46	0xbd22e634	-0.03977032
47	0xbd8cac35	-0.068687834
48	0x3c980952	0.018559132
49	0xbd7e2d0e	-0.062054686
50	0x3d1c9d9e	0.038236253
51	0xbd6296f1	-0.05531973
52	0xbd861d2a	-0.06548531
53	0x3c9a89b8	0.018864498
54	0x3d260944	0.04053618
55	0x3c3f200b	0.0116653545
56	0xbd7dfdb3	-0.062009525
57	0x3bc73691	0.006079503
58	0x3c9fbbf5	0.019498805
59	0x3d2d536a	0.042315878
60	0xbc8f0e15	-0.01746277
61	0xbc9a86c3	-0.018863088
62	0xbcf8d517	-0.030375047
63	0x3d07aa78	0.033121556
64	0x3c70278b	0.014657865
65	0x3b9687c0	0.0045938194
66	0xbbbc6a94	-0.00575001
67	0xbbe75caa	-0.007060607
68	0xbd14ea9a	-0.036356546
69	0xbcac4165	-0.021027276
70	0x3d0e80bf	0.03479075
71	0xbd1f0550	-0.038823426
72	0x3d5208a6	0.05127778
73	0x3a0d207e	0.0005383565
74	0x3cf89d3a	0.030348409
75	0x3c3eaf24	0.0116384365
76	0x3c9e6794	0.0193365
77	0x3d101883	0.035179626
78	0xbd420c2e	-0.047374897
79	0xbd68d070	-0.056839406
80	0x3d59c235	0.053163726
81	0xbcba04fb	-0.022707453
82	0x3d4f99a4	0.050683632
83	0x3c79601f	0.015220671
84	0x3d58b7d7	0.0529097
85	0x3cdc5ffb	0.026901236
86	0xbd9b8ec7	-0.07595592
87	0xbd9c1759	-0.07621641
88	0xbccd3ba9	-0.025052862
89	0xbdb494d0	-0.08817446
90	0x3d1342b7	0.035952296
91	0xbd3f4094	-0.046692446
92	0xbd9ca47e	-0.07648562
93	0x3ca00488	0.01953341
94	0xbd80eb32	-0.0629486
95	0x3d1c46a3	0.038153302
96	0xbc855050	-0.016273648
97	0xbbca9e85	-0.006183448
98	0x3d1979d3	0.037469696
99	0xbd8e2ce6	-0.069421574
100	0xbdb94964	-0.09047201
101	0xbd188d51	-0.037244145
102	0xba0dd7d1	-0.00054108823
103	0x3ca55ae8	0.020184949
104	0xbb87343e	-0.004126101
105	0xbbb6f9ed	-0.0055839927
106	0xbc1da665	-0.009622191
107	0x3b67a9bf	0.003534898
108	0xbc712a93	-0.014719623
109	0xbd3d199e	-0.04616701
110	0xbdafd1d9	-0.08584947
111	0x3c8eec58	0.017446682
112	0x3d5a11f6	0.053239785
113	0xbbe8e6e8	-0.0071076043
114	0x39c3a613	0.00037317033
115	0xbd969fa1	-0.073546655
116	0x3c5f05f0	0.013612255
117	0x3bc765f4	0.006085152
118	0x3c156ce3	0.009120199
119	0xbd8c5954	-0.068529755
120	0x3b412791	0.0029473046
121	0xbd3b2afb	-0.045695286
122	0x3d309f8e	0.043120913
123	0xbd158458	-0.036503166
124	0x3cf107f9	0.029422747
125	0xbc56eb23	-0.013117584
126	0xbd4288b9	-0.04749367
127	0x3c59d515	0.013295432
128	0xbd7d85c4	-0.061895147
129	0x3dd6936f	0.104773395
130	0xbd00ebcd	-0.031474877
131	0x3db0ec18	0.08638781
132	0xbd5252f4	-0.05134864
133	0x3d95a21b	0.0730631
134	0xbda2a580	-0.07941723
135	0x3d1e2dca	0.038617887
136	0x3e1128ac	0.14175671
137	0x3d84408f	0.06457626
138	0xbd538e69	-0.051649485
139	0x3df15100	0.11783028
140	0x3de8a5d2	0.11359753
141	0xbc1a648a	-0.009423384
142	0xbd6abb9e	-0.057307832
143	0x3dbbe63c	0.09174773
144	0x3de2da90	0.11076844
145	0xbd0fe305	-0.035128612
146	0xbe208913	-0.1567729
147	0xbdc23944	-0.09483579
148	0xbd8bd5c7	-0.06827884
149	0x3c5e7996	0.013578793
150	0x3cc4a717	0.024005456
151	0xbd18b6fa	-0.037283875
152	0x3e10e220	0.1414876
153	0x3dd3372a	0.10313256
154	0x3dbc486b	0.091935
155	0x3cf9883f	0.030460475
156	0x3de06682	0.10957052
157	0xbdb08848	-0.086197436
158	0x3d9ca6ad	0.076489784
159	0xbe5a567e	-0.21322057
160	0x3de26d89	0.110560484
161	0xbd9771c4	-0.07394746
162	0xbcb37d9f	-0.021910487
163	0x3ddbb380	0.10727596
164	0x3e22f810	0.15914941
165	0xbcfd83a6	-0.030946564
166	0xbd59e4d8	-0.053196758
167	0x3e0364d8	0.12831438
168	0xbde831c4	-0.11337617
169	0x3e1e3ee6	0.15453681
170	0x3d040a97	0.03223666
171	0x3d71aff4	0.059005693
172	0x3e0e6517	0.1390575
173	0x3e21a681	0.15786172
174	0x3e12462d	0.14284582
175	0xbaa69805	-0.00127101
176	0x3da737df	0.081649534
177	0x3ded2e0e	0.1158105
178	0x3d9d4148	0.07678467
179	0x3c20e242	0.009819569
180	0xbe1ff610	-0.15621209
181	0x3dd29bbb	0.102836095
182	0x3cc2381c	0.023708396
183	0xbcee3183	-0.029076343
184	0x3aefc663	0.0018293377
185	0xbd513ab9	-0.051081393
186	0x3dca50b8	0.09878677
187	0xbc81b84e	-0.015834954
188	0x3b988f57	0.0046557593
189	0xbd7d7448	-0.061878473
190	0x3be2cb7c	0.00692123
191	0xbd8a6ca4	-0.06759003
192	0xbe1d80db	-0.15381186
193	0xbda411b2	-0.080111876
194	0x3c645cd1	0.013938145
195	0x3c10333d	0.008801279
196	0x3dd93309	0.10605437
197	0xbdf3d70a	-0.1190625
198	0xbd6ffc2c	-0.0585901
199	0x3cd61935	0.026135067
200	0x3b5637e7	0.003268713
201	0x3db3c87d	0.087784745
202	0xbd882b23	-0.06648853
203	0xbd1001e6	-0.03515806
204	0xbd7cf351	-0.061755482
205	0x3d550f54	0.05201657
206	0x3c5a789e	0.013334421
207	0x3e241ae1	0.16025878
208	0xbdfa989c	-0.12236139
209	0x3d8298ae	0.063767776
210	0x3cceb495	0.025232593
211	0xbdcf9173	-0.10135164
212	0xbdd978d3	-0.106187485
213	0x3d5a5eda	0.053313114
214	0x3e0f4259	0.13990153
215	0x3daf0289	0.085454054
216	0xbe313522	-0.17305425
217	0xbde04974	-0.1095151
218	0x3d86a61e	0.06574653
219	0xbd7cee81	-0.061750893
220	0xbdcaee98	-0.099087894
221	0xbb41f2fa	-0.0029594288
222	0xbe187c18	-0.14891088
223	0x3de3b1f4	0.11117926
224	0xbd74dbbc	-0.059779868
225	0x3dcc6a45	0.09981207
226	0xbcf206a3	-0.02954418
227	0xbde8381d	-0.11338828
228	0x3dfea733	0.124342345
229	0xbe1ae6ea	-0.15127149
230	0xbd8ba40f	-0.06818401
231	0xbd872a06	-0.06599812
232	0xbd8f8b58	-0.070089996
233	0xbcca9f76	-0.02473424
234	0xbd0a53d1	-0.03377134
235	0x3dcb4c95	0.09926716
236	0x3e16addf	0.14714764
237	0xbddcd8cf	-0.107835405
238	0xbdfde415	-0.12397019
239	0xbe06368f	-0.1310675
240	0xbc29582c	-0.010335963
241	0x3e146990	0.14493394
242	0x3e0a9524	0.13533455
243	0xbda30ace	-0.07961045
244	0x3d701025	0.058609147
245	0x3d3bc8fc	0.04584597
246	0xbcdcd356	-0.026956242
247	0xbd79e103	-0.061005604
248	0xbe06375a	-0.13107052
249	0xbdc1190a	-0.09428604
250	0xbdb57134	-0.088594824
251	0xbe1d6a17	-0.15372501
252	0x3dfbe2af	0.12299096
253	0xbe07ce6d	-0.13262339
254	0x3e22a8a2	0.15884641
255	0x3e07a584	0.13246733

action_model._discrete_distribution.branches.1.bias f4 [3]
0	0x3b59f848	0.003325956
1	0xbbd037a9	-0.0063542915
2	0x3bbdfb81	0.005797804
