Assets/brains/CarAI19.onnx (onnx, 96334 bytes, 9 tensors)

discrete_act_size_vector f4 [1, 2]
00000000: 0000 0040 0000 4040
2.0 3.0

network_body._body_endoder.seq_layers.0.weight f4 [128, 39]
00000000: 9dfc 07be 31a0 aa3d 8025 09bf 4b15 3d3d
00000010: 0619 813e 540f cbbe a7c1 48bd ebcb 223e
00000020: 59a3 d23b ed16 17be 7ece 14be 32fd 84be
00000030: dbb3 263e 798e 86be 27fb bbbe 4508 4d3e
00000040: cf59 1cbe 078e 313e f97c 84be 888a 18be
00000050: 3122 bb3e 15bc 79bd 948c 7c3c 9da3 d0bd
00000060: 6560 193e 4ba3 8c3d e551 e23c afe2 9bbd
00000070: 17f7 773d ecc5 a33e 910e 033e 0cdc 1cbe
00000080: 0e4f 9a3d f799 2e3e 8aac ebbd 93de 06bd
00000090: 8da2 753e 4442 833c f92f 08bf 006e 2e3e
000000a0: 4393 00be 0330 153d 8dca 183d 8a64 ce3e
000000b0: 2e8e 143d 804a 51bd 13b6 9b3d 63b6 d53c
000000c0: 66e4 943e bef5 a93e c822 d7bd 953c e0bc
000000d0: a2b3 e13c 6a1a d6bd 3843 31be 8a67 483d
000000e0: 012f d13d 800d f13b b5ba 4e3e f929 6abe
000000f0: 8d8d bb3d 714e a8bd 0f24 f63d 7072 a7bc
00000100: 4b95 b8bc e335 5bbd 75e2 bb3d 191a 4ebd
00000110: b066 443c edaf 613d b7fe 97be ff1b 53bd
00000120: dea9 a0be df33 783e e354 6c3e 5450 993e
00000130: a50a 173e 75d8 9e3e 598e 68be 39da 733e
00000140: 6a4e 883d b03d c0bd 030c 38be a496 a03e
00000150: ffd0 8f3e 70fc febd 2245 e43c 6342 bdbd
00000160: fa6d d3be bb85 a83e 35c8 20bd 3f40 663e
00000170: 247a a93d 82f5 7f3d 0042 e9bd 2c41 913d
00000180: 8d66 0abe 4fca a33e 0f1a c43e 9942 a13d
00000190: 6334 a33c ed84 3c3d cd9f 903e 0bcb 19be
000001a0: c5cf 9b3e af67 05bf 524c b7bc 24f3 053e
000001b0: 992c 6bbc bc37 ccbe f194 103f e9fe 5b3d
000001c0: e38b a63d 1a44 34be 538e e43d 8484 833c
000001d0: f2ba b1be a180 dd3d 4f2a a2bd 6cd2 d53d
000001e0: 9238 0cbc c332 543e 5a33 093c c73b a5bd
000001f0: 8617 8b3e e312 923d cf6d 763e 81a8 3c3e
00000200: 7784 15bf 07d0 8b3e cd6a 9fbe fe18 86be
00000210: 2593 5c3d e727 5abe 10bd e1bd 7f64 d5bd
00000220: ccfa 8bbe bb15 a23e 1839 adbc 4b32 2ebe
00000230: 5b4e 1e3c d39e 8bbd ba47 133d f822 dabd
00000240: d28a 8c3d 88c5 13be 4970 1b3e 7b71 88bd
00000250: b59e 383e 5d1e 4c3c 45e4 813d 3189 e93e
00000260: 02ef a03d a2cd a93c 8239 b7bd a868 9abe
00000270: 5129 023d 532c f53d edea 14be d312 6cbe
00000280: 7a6c a93d 67e9 f43d 22b4 30be 6d4e 2bbe
00000290: 94f6 133e 8562 cb3e a34c 9dbe b88d babe
000002a0: 5fb0 e03e 702e b4bd 95f7 a1be a942 3b3d
000002b0: b84c e33d ead3 4bbe 6d3c a3bc 0301 b9be
000002c0: 4e20 b93e 64de 123e 5849 bfbe 00fd 65be
000002d0: ab88 3d3d c0f8 623e 78e2 6b3d 0c69 603d
000002e0: b55c 553e 3fcc 213e 72dd 4bbd 4806 68bd
000002f0: cfe9 20be 6fc7 0dbd 9a73 c63e 3da5 163e
00000300: 95ff e7bd 3865 b13e e464 8cbe c3a4 21be
00000310: 4cad babe 5f63 d7bd a91c d83d dbf9 d33c
00000320: 9a33 0a3e 8667 cc3d 79f8 26be 7db1 fd3e
00000330: 8162 ccbd abba 383e aef7 023d 74f8 d6bd
00000340: 9a72 993e 41d5 1b3e 72cc e63d 1dc4 173e
00000350: 3f51 3abc 3963 2cbe 0d78 df3d d445 d0be
00000360: 627c a93d 1714 073d 0d69 d6bd 1ee1 753e
00000370: 6831 883c 44d6 83bd e9cd f03c 2e2f 75bd
00000380: 97b5 46bd bf18 9d3a 65b3 42be e858 643e
00000390: c54f be3e a4b1 8ebe 123f fbbd f2be 9dbe
000003a0: 415e 69be 9945 043d 6732 2bbd 18f4 0f3e
000003b0: 0bfc b53d 8b94 ecbc 4c5d adbe 64e9 8c3e
000003c0: e651 9cbe 66ce 95bc c542 3dbe 47d1 553d
000003d0: 42c0 67be 2443 0dbc c4ff abbe af82 213e
000003e0: 1951 9c3d 35c6 3b3e f5b7 febd 9990 d6bd
000003f0: c89b 073d ebf1 6fbd 1652 783e b73a 28bd
-0.13279958 0.08331335 -0.53572845 0.046162885 0.25214404 -0.39660132 -0.049012806 0.15898101
0.006428164 -0.14754839 -0.14531896 -0.25974423 0.16279547 -0.26280573 -0.36715052 0.20022686
-0.15268634 0.17339335 -0.25876597 -0.14896595 0.36549523 -0.060970385 0.015414376 -0.10187457
0.14978178 0.06867083 0.027626941 -0.07611596 0.060538378 0.3198694 0.12798525 -0.15318316
0.0753461 0.1705092 -0.115075186 -0.032927107 0.2398779 0.016022809 -0.531982 0.17034149
-0.12556176 0.03642274 0.037302542 0.4031108 0.036268406 -0.05109644 0.07603087 0.026087945
0.29080504 0.331953 -0.10504681 -0.027372638 0.027551476 -0.10454257 -0.17310798 0.048926868
0.102140434 0.0073563457 0.2018841 -0.22867574 0.09157858 -0.082180865 0.120185964 -0.02044031
-0.022532126 -0.053518187 0.091740526 -0.050317857 0.011987373 0.055099417 -0.2968652 -0.05154037
-0.31379598 0.24238537 0.23079257 0.29944098 0.14750154 0.3102452 -0.22710551 0.23813714
0.06655581 -0.09386766 -0.17973332 0.3136493 0.2808914 -0.124504924 0.027864996 -0.09241178
-0.41294843 0.32914528 -0.039253432 0.22485445 0.082752496 0.062489994 -0.113895416 0.07092509
-0.13515683 0.31990287 0.3830113 0.078740306 0.01992244 0.046025205 0.28246918 -0.15018861
0.30431953 -0.52111334 -0.02237526 0.13081032 -0.014353895 -0.39886272 0.56477267 0.0537099
0.0813215 -0.17604104 0.11159959 0.0160544 -0.3471294 0.1081555 -0.07918226 0.104405254
-0.008558409 0.20722489 0.00837406 -0.08068042 0.27166384 0.071325086 0.24065326 0.18423654
-0.5840525 0.2730715 -0.3113617 -0.26190943 0.053851265 -0.21304284 -0.11022389 -0.10419559
-0.2733978 0.31657204 -0.021145388 -0.17011373 0.009662236 -0.06817403 0.035957076 -0.10651201
0.068624154 -0.14430821 0.15179552 -0.0666227 0.18029292 0.012458411 0.06342367 0.4561248
0.07858087 0.020727936 -0.089465156 -0.3015797 0.031777684 0.11971345 -0.14542742 -0.23054056
0.082726434 0.119585805 -0.17256215 -0.16729136 0.14449531 0.39723602 -0.30722532 -0.36436248
0.4388456 -0.0879792 -0.31634203 0.04571787 0.11098617 -0.19905058 -0.019926274 -0.36133584
0.3615746 0.14342648 -0.37360644 -0.22459793 0.046272915 0.22165203 0.057589024 0.05478768
0.20836146 0.1580057 -0.049771734 -0.056646615 -0.15714191 -0.034614023 0.38760072 0.14711471
-0.11328045 0.34647536 -0.27420723 -0.15785508 -0.3646034 -0.105170004 0.105523415 0.025875976
0.13496247 0.09980683 -0.16305722 0.49549475 -0.09979726 0.18039958 0.031974487 -0.104966074
0.29970247 0.15218069 0.112694636 0.14820905 -0.01137191 -0.16834725 0.1091157 -0.40678275
0.08275677 0.032978144 -0.104692556 0.24011657 0.016625121 -0.06437352 0.02939506 -0.059859447
-0.04851302 0.0011985524 -0.19013746 0.2229954 0.37170234 -0.27869904 -0.12267889 -0.30809742
-0.22789861 0.032292936 -0.041796114 0.14057958 0.08885964 -0.028879425 -0.33860242 0.27521813
-0.30531234 -0.018286895 -0.18482502 0.052201536 -0.22631934 -0.008621965 -0.3359357 0.15772508
0.07632656 0.18337329 -0.12437431 -0.104767986 0.03310755 -0.05858032 0.24250063 -0.04107162

network_body._body_endoder.seq_layers.0.bias f4 [128]
00000000: c2da 733d 705d be3b 15b5 5d3c 006f 1e3d
00000010: 2170 5a3b 6511 6b3d ead6 b03c aaff a23d
00000020: bd08 143d 0164 9c3c b040 893c b3d6 aa3a
00000030: d15f bf3c 7346 973c 3afa 233d cf16 9e3d
00000040: 4f6f 5f3c c57a bb3c 10ec 9b3c 4a84 27bc
00000050: a349 533c b7a8 5e3d 09e2 713d 46e2 acbb
00000060: 980e f63b 9c5f 4b3d 8961 843b 8f18 1d3d
00000070: af80 b93d 72cb 90bc 7855 3b3c 9f06 41bc
00000080: e2e0 783c bfc3 2fbd 29d6 0b3d 8dc2 b13c
00000090: d438 123d 696f ad3c 66eb 573d 8537 673d
000000a0: 3191 0abe 01ab 8f3d 3bb7 463c af25 833c
000000b0: 7979 d1b7 4a27 37bb dbf0 b9bc 4c7f ba3b
000000c0: e619 573d 8329 073d c503 c33c 0988 7f3d
000000d0: 41d7 813c b1b5 a5ba ed85 5f3d be00 913d
000000e0: b17d a43c 5d30 2c3d 5809 4c3c 4b3e 023b
000000f0: a077 3a3d 89de 343c 9c97 643d 4dfa 543d
00000100: 7be9 aa3c 5448 21bc 86fb 26bd a5c4 3fbc
00000110: 3d3e c13d a38d 143d 5b07 0d3d 60b7 eb3c
00000120: 87f3 dd3b 31b8 913c b915 903c 3703 1abc
00000130: dec4 e53c 8b9c a53d 2600 a53c 774c 6a3c
00000140: 0650 f23a 8d52 2f3d 5be7 dc3b 0b26 3c3d
00000150: 1d3c db3c 2901 273d a5e6 ad3c a6b4 88ba
00000160: 8a46 9a3c f6f7 f13c f8f0 653b bcea 623b
00000170: a197 083c 72be e0bc 0307 17be 1751 273c
00000180: d5cc b63c 87d4 fe3c 8c53 d33c 8937 223d
00000190: 37fa 38bb 0e77 143d 3de9 2ebd 69e6 093c
000001a0: 8574 ea3c 3895 c23c d8bf 763d 849c 9c3c
000001b0: 9a6c 203d 3976 3fbc 35de 7b3d 910c b43c
000001c0: 2c49 893b 769a fb3c 3100 24bb 4ced 82bc
000001d0: e2b7 2f3d a4e7 823a 17a8 1ebd b566 8a3d
000001e0: 9630 233d d62f 893d efbd babd e9f1 1cbc
000001f0: eb59 ef3c 94ac 983d 4d33 ecbd 1dcb 773d
0.059534796 0.0058094785 0.013531943 0.038680077 0.0033330994 0.057389636 0.021586854 0.0795892
0.036141146 0.019090654 0.016754478 0.0013033956 0.023361119 0.01846621 0.040033557 0.07719194
0.013637378 0.02288569 0.019033462 -0.010224411 0.012895974 0.054360118 0.059053455 -0.0052759973
0.007509064 0.049651727 0.0040399474 0.0383535 0.090577476 -0.017675135 0.011433952 -0.011781364
0.015190335 -0.042911287 0.034139786 0.021699214 0.035698727 0.021171289 0.052714728 0.056449432
-0.13531949 0.07015038 0.0121286465 0.01600918 -2.4971307e-05 -0.0027947002 -0.022697857 0.0056914445
0.052514933 0.032998573 0.023805508 0.062385593 0.015849711 -0.0012642649 0.05457108 0.0708022
0.020079466 0.04203831 0.0124534 0.0019873555 0.04552424 0.011039385 0.05580865 0.051996518
0.020863285 -0.0098439045 -0.040767215 -0.011704599 0.09435699 0.036267888 0.034430843 0.028773963
0.0067734155 0.017788025 0.017588483 -0.009400181 0.028047975 0.08086499 0.020141672 0.014300457
0.0018486984 0.042803336 0.006741447 0.045934718 0.026762063 0.04077259 0.021228144 -0.0010429814
0.018832464 0.029537182 0.0035086256 0.0034624776 0.008336932 -0.027434561 -0.14748769 0.010212204
0.022314468 0.0311072 0.025796674 0.039603744 -0.0028225312 0.036246352 -0.042702902 0.0084167505
0.028620014 0.023752794 0.06024155 0.019117601 0.03916607 -0.011685901 0.06149121 0.021978648
0.004189631 0.030713301 -0.0025024528 -0.015982293 0.042899974 0.0009987247 -0.03873452 0.06757871
0.039841257 0.06698577 -0.09118258 -0.00957916 0.02921768 0.07454792 -0.11533222 0.06049644

network_body._body_endoder.seq_layers.2.weight f4 [128, 128]
00000000: b859 b8bd 96ed 023d 9c09 8a3e b21c a8bd
00000010: 4b48 1c3d dc4c 1c3e 5e82 ebbb 3332 e63c
00000020: fbbc dabb 5bf1 1fbd 9f4e c1be 2bed 07be
00000030: 6751 ddbd 20f2 b8bc 4b57 4d3e 17ab 89bd
00000040: f21a 3bbe 732b b1bd 6972 2dbe 65a2 57be
00000050: f7a8 9b3c a69e a9bc 4b1f d9bd 995d c0bd
00000060: 5900 183d af18 823d 556b 89bd f224 25be
00000070: afa0 6b3d 4449 6abe 24f1 d4bd f812 9abc
00000080: 6cce f33d 0e8e 593d fc01 b5be f48f 113d
00000090: 9142 9a3d c8ce c23d 2b11 06be 5454 dd3c
000000a0: e6c2 c6bc 1e1f a43e b429 91bd 0c1d 22be
000000b0: b86b b03d d094 773d 134d 44be 402a e13d
000000c0: 035a 2abe 46a2 5a3e feca 493c d483 47be
000000d0: c3a0 193d d3b9 b0bd 4b62 323e 27e5 853d
000000e0: 7152 603c 2178 b23d e9b9 743d d857 2dbe
000000f0: dcc3 133e 003e 583c 2ae8 79be 1d96 eabd
00000100: 0a12 193e d5c6 033d 8cfb ee3d 195e 10bd
00000110: 467a 5d3e e46a 95be 7c89 bf3d 4509 2e3c
00000120: f9c5 153e 6f23 2a3b 5206 1c3d 9f62 92bd
00000130: 5d87 cebc 078e fdbc 9989 2abe 4a3d 97be
00000140: 4df3 97be baf2 89bd 9763 853d 828e fc3d
00000150: c454 0e3e 5f1c 653e 6b08 853e 4a71 463d
00000160: 253c 883e 852f 6a3e 5a5c 9ebc 240f edbd
00000170: b6c2 f43d 64c8 d5bd 5ea0 7d3d 2331 fb3d
00000180: 655c a6bc 73c7 bdbc 3078 5f3e 382f 89bd
00000190: 9b84 e33d 63cd d3bd ebf2 bcbc 5925 c1bd
000001a0: eb9f c53d b171 253e 0d95 64be 9613 0d3e
000001b0: d285 a3bd 00b2 f8bd 8c24 6b3e 6908 293e
000001c0: ba0f 963d 67ff cb3d 4f68 aabd db13 1dbc
000001d0: d5d7 b4bd cdc7 b13d 333d 99bd 1d5d a13e
000001e0: 27f9 86bd a122 3dbe 8cfe 2f3d 2dca 533e
000001f0: e4cc 84bd b2f5 e03e 088c ad3c ff37 833e
00000200: dc2b 8cbd 37c9 72bd 25f0 833e 0b55 67be
00000210: 8055 32be 3bd1 183e c38d 70bd 2d5b d5bd
00000220: cf2f 1a3d 89e7 dfbc 9412 98be dde4 12be
00000230: b76c 97bd 4d97 373d 9ee1 7a3c 10d2 863d
00000240: ae39 04bd 7743 afbd 2071 82bd 6566 1bbe
00000250: 6663 3e3e 1f83 383d 71e8 ac3d a28e 2dbd
00000260: f92e e4bc 697b ad3d cc07 42bd 71ba 9bbe
00000270: 0e11 41be 33a8 d53d bc31 a5bd f1dd 703e
00000280: 020f ca3d 7cdb 1fbd 8d66 5cbe e7b2 903e
00000290: 2aa7 14be 474b 0e3e b448 c43c 3357 543d
000002a0: 82eb 7a3b 1034 2d3e c1f7 a63c e5d9 67be
000002b0: 1634 493d c6a3 3ebd 844e 16be 5d76 303e
000002c0: 854c d4bd b95c 553e aaae f7bc 5cf4 a9bd
000002d0: bd7d 95bc 7ad0 96bd 7d5b 173c 8efa 0bbd
000002e0: 6418 793d 3501 3a3d 2a84 4dbd 5ea1 afbd
000002f0: 83bc 51be c43e 51bd c259 82bd a258 f8bd
00000300: 0e4c 46bb 188e c63d 3a95 663d 165b 3abd
00000310: 6c05 c5bb b607 19bd 25c6 a63d ca8d 00be
00000320: e2c9 5c3e 2558 813c 6604 b33d 3cf6 f2bd
00000330: 43de 943d 1b87 8abd bcd9 b63d 924b 16bd
00000340: b2bc 58be a234 81be 776c 9fbd 0bbc 233c
00000350: d503 db3d 24bc dfbb f352 2a3e fcfb 683d
00000360: 538e 973d 47df 913d 8c7f 3d3e 3eaf 36bc
00000370: ff44 15bd dafe c4bd 6ce3 473d 9167 3ebd
00000380: c56a 7a3d 5e4b 5f3d b775 483e ced9 55bd
00000390: 6507 f53d be22 0a3e 17a1 a53d 21c0 85bd
000003a0: 75fd 883d 6090 4e3e 5aad 7bbe 3283 97bc
000003b0: 2f8e 093e defc 52bd b2d9 fe3d 62e2 123e
000003c0: 8b9d 9dba fd05 273e dfdd e8bd 9044 953d
000003d0: a745 213d bec1 66be 4efc 71be 9a92 243e
000003e0: d424 b53c c088 f4bd 881e 923d 2f5f a23c
000003f0: 7333 0fbd ab48 8e3d 0f4b 28bd e0ce f63d
-0.090014875 0.03196486 0.26960456 -0.08208598 0.03815488 0.15263695 -0.007187172 0.028100109
-0.0066753603 -0.039048534 -0.37755296 -0.13274066 -0.10806542 -0.022576392 0.20052831 -0.06722086
-0.18271998 -0.086508654 -0.16938175 -0.21058042 0.019001467 -0.020705532 -0.10601672 -0.09392852
0.037109707 0.06352364 -0.06709925 -0.16127375 0.057526287 -0.22879511 -0.103975564 -0.018807873
0.11904606 0.05311399 -0.35353076 0.035537675 0.07532228 0.09512097 -0.13092487 0.02701775
-0.024262857 0.3205499 -0.07088032 -0.15831393 0.08614296 0.060444653 -0.19170026 0.10994387
-0.16635899 0.21350965 0.0123164635 -0.19483882 0.03750683 -0.08629193 0.17420308 0.06537848
0.013691531 0.08714319 0.05974761 -0.16928041 0.14430183 0.013198376 -0.2440497 -0.11454413
0.14948288 0.032172043 0.116690725 -0.03524599 0.21628675 -0.29183114 0.09352395 0.010622327
0.14626302 0.0025961061 0.038091965 -0.07147717 -0.02521103 -0.030951513 -0.16654052 -0.29538947
-0.2967781 -0.067357495 0.06513136 0.12331869 0.13899523 0.22374104 0.25982985 0.048447885
0.26608387 0.2286969 -0.019331146 -0.115751535 0.11951201 -0.10438612 0.061920516 0.122652315
-0.020307729 -0.023166394 0.21823192 -0.066984594 0.11109277 -0.10341909 -0.023065051 -0.094309516
0.096496426 0.16156651 -0.22322483 0.13777003 -0.079845086 -0.12143326 0.2296316 0.16507114
0.07327218 0.099608235 -0.083206765 -0.009587253 -0.08830229 0.08680687 -0.07482376 0.31516352
-0.06590491 -0.18470241 0.042967364 0.20682593 -0.06484392 0.4393745 0.021184936 0.2562866
-0.06844303 -0.059273925 0.25769153 -0.22591035 -0.17415428 0.14923565 -0.058728945 -0.10417781
0.03764325 -0.027332084 -0.29701674 -0.14345117 -0.073937826 0.044822026 0.01531258 0.06583035
-0.03228157 -0.0855779 -0.06369233 -0.15175779 0.18592605 0.04504692 0.08442772 -0.042372353
-0.02785443 0.08470804 -0.047370717 -0.3041568 -0.18854162 0.10432472 -0.08066127 0.23522164
0.09866144 -0.039027676 -0.21523495 0.28261492 -0.14516893 0.13895904 0.023960449 0.051840972
0.0038287346 0.16914392 0.02038181 -0.22641714 0.04912194 -0.046542905 -0.14678389 0.17232652
-0.103661574 0.20836152 -0.030234654 -0.08298561 -0.018248433 -0.073639825 0.009238121 -0.034174494
0.060814276 0.045411307 -0.05017487 -0.085757 -0.20482068 -0.05108525 -0.06364776 -0.1212628
-0.0030257734 0.09695071 0.056294657 -0.045497023 -0.006012609 -0.03736087 0.08143262 -0.12554088
0.21561387 0.0157891 0.08741073 -0.11863372 0.072689556 -0.067640506 0.08928248 -0.036693163
-0.21165732 -0.25235468 -0.0778436 0.009993563 0.1069409 -0.006827848 0.16633205 0.056880936
0.07400193 0.07122665 0.18505687 -0.011150179 -0.036442753 -0.096189216 0.04880087 -0.046485487
0.06113698 0.054515235 0.19576155 -0.052209668 0.11964301 0.13489816 0.08087366 -0.06530786
0.06688968 0.20172262 -0.24577847 -0.018495176 0.13433145 -0.051510684 0.12443866 0.1434417
-0.0012025101 0.16310878 -0.113704436 0.07288468 0.039373066 -0.22534844 -0.23631403 0.16071549
0.022112288 -0.119401455 0.071347296 0.019820778 -0.034961175 0.06947454 -0.041087206 0.12051177

network_body._body_endoder.seq_layers.2.bias f4 [128]
00000000: 54c9 473d 4663 b63c 809c ec3c 8d63 af3c
00000010: 8af3 003d 90bc 033d 5017 183d 483e 053d
00000020: 8bd6 0c3c b9dc a53d 0c36 2b3d 85ae 653d
00000030: ddfe 8e3b c51c 033d 5d23 453c 3527 193d
00000040: ac6e 103d a432 8b3c d830 233d ac5f 733c
00000050: 6ef0 8e3c 7be3 ad3c c070 983c 5f9f 103d
00000060: 37ec cc3c 648a f13c 00f0 b1bb 8e69 393d
00000070: c883 013c d252 043d 14f4 ef3c 74d0 ae3c
00000080: eca8 113d e773 503d dc5b f2ba 352d 143d
00000090: ce01 ad3c d08f 5c3d 7a52 e33c 8de7 dc3b
000000a0: ad3a c33c 4280 0a3d e338 d73b 5b10 db3c
000000b0: 8bac 3b3d 0133 803c 1b76 f13c 4a94 073d
000000c0: 2888 1a3d 1048 033d 8815 3e3d 8463 8a3c
000000d0: 5b8f c43c 17cf 6b3d 23cd 853c bf04 9e3d
000000e0: d3c2 0e3d 05b3 613d 009c 743d e7c6 fd3c
000000f0: fab6 c73c 5766 053d 9d06 643d 84c1 2eba
00000100: 550c 113d 9770 ac3c a69e a73c bd95 1b3c
00000110: 8909 313d d758 153c 2072 053d 36a9 4e3d
00000120: 936e c53c bef5 ca3c 2aae 4b3c 6e73 033d
00000130: c35f 823b 546f 863d 6035 853c 7b7c f43c
00000140: 387d 843c 65dc b73c 13fb ab3c 8f95 893c
00000150: a1c0 973c d9e1 1f3d e203 e53c 1fcb 613c
00000160: 239a 163d 2018 003c 87ee ec3c 872b 8f3c
00000170: 9d24 1c3d 206d 013b 11db 033d 8a7b 883c
00000180: ff42 833c f518 9b3c e8e8 e83c 14a2 ed3c
00000190: 94bc 173d 65dc f33c 9d2c 8f3b d762 093d
000001a0: fed5 213b a8d7 423d 15a6 183c 69ab 003d
000001b0: 467b 1a3d 4251 463c 342f 183d b562 3d3d
000001c0: 541c 053c a46a 1f3d b6b5 ee3c fdb5 a63c
000001d0: be8f b33b 79c4 0d3d 30e5 fd3c d1d0 9d3c
000001e0: a565 d73c 580c 2e3c 4cb0 023d f09b b63c
000001f0: 95d3 023d d0ab c43c ff2d 6c3c b9bd 28bc
0.048775986 0.022264134 0.028883219 0.021409774 0.031482257 0.03216225 0.037131608 0.0325301
0.008596073 0.0809874 0.04179959 0.056074638 0.004363878 0.03200986 0.012032357 0.037390906
0.035261795 0.01699192 0.039841503 0.014854353 0.01744863 0.021226635 0.01860845 0.035308238
0.02501498 0.029484935 -0.0054302216 0.04526668 0.007904954 0.032305546 0.02929119 0.021339633
0.035561487 0.050891783 -0.0018490511 0.036175925 0.021119025 0.053848088 0.027749289 0.00674147
0.02383169 0.033813722 0.0065680607 0.026741197 0.045818847 0.01564932 0.029475262 0.033100404
0.037727505 0.032051146 0.046407253 0.016893156 0.023994138 0.057570543 0.016333168 0.07715749
0.034853768 0.055102367 0.059719086 0.030978633 0.024379242 0.032568302 0.05567037 -0.00066664093
0.03541215 0.02104978 0.020461392 0.00949615 0.043221984 0.009115419 0.03257954 0.05045434
0.024100577 0.024775382 0.012431661 0.032092504 0.003978701 0.06564203 0.016260803 0.029844513
0.01617299 0.02244396 0.020993745 0.016794948 0.01852447 0.039033744 0.027955953 0.013781338
0.03676809 0.007818252 0.028922332 0.01747681 0.038120855 0.0019748881 0.03219134 0.01666047
0.016023157 0.018932799 0.02843137 0.029007949 0.037045076 0.029768178 0.004369332 0.033541527
0.00246942 0.047568947 0.009316941 0.03141347 0.03771522 0.012104334 0.03715439 0.046236712
0.00812443 0.03892006 0.02913938 0.02035045 0.005479782 0.0346112 0.030993074 0.01926461
0.026293585 0.01062306 0.03190641 0.022291154 0.03194006 0.024007708 0.014415263 -0.01029914

action_model._discrete_distribution.branches.0.weight f4 [2, 128]
00000000: be13 43bc 7638 a6bc 6fd5 12be 24e8 ef3c
00000010: f482 aa3b ffdd e03d 7c7f 2bbe 65d7 28bc
00000020: 9118 043e 0f1a 79be ceaa 9abd c38b 29be
00000030: 0d69 e13d 6fa4 013d 96ef b0bd db3b 2bbe
00000040: b636 7ebd df77 24be f432 253e bc9c 9e3d
00000050: c3ed 813c e2c9 96bc b228 63bd 9a94 3d3e
00000060: 11db 33be 0e20 32bd e6bf 67bd 0467 14be
00000070: d54f 13bc 69de 00be 2bde 23be 9be9 373e
00000080: 1e07 e33d 7a8a a5bd 964f 7b3d 9d7a 18be
00000090: 2c3c a1bd 768c 5abe fe95 b6bd 16ec b43d
000000a0: 24b3 edbd 5a85 0cbe fb76 9d3d d584 843d
000000b0: 4dee 7ebd 464e 0bbe 4711 06be 2bb4 443e
000000c0: ea0b c63b e5f5 ce3d 160b 26bd d0db e23d
000000d0: d436 76bd 5acc 93bd c47f c53d 2639 eb3c
000000e0: d3e9 a6bd ea1c 25be 6d1f 993d 90a3 07be
000000f0: 11fb 6e3e 4857 e8bc b619 8ebc 6f1d 1f3e
00000100: 149f a53b cf3a 2c3d fb77 893d 84ee 0b3e
00000110: f899 dc3d fb05 463e 6f52 c9bd 58b9 63bd
00000120: 2ccb 7bbd 61fd 14be 7241 b53d 26bd f43d
00000130: 90a8 99bd f3db e03d dc74 d13d d5ce 9d3d
00000140: 6aee d23d 0955 60bd 63ed 7ebc 3ecf eabd
00000150: d385 b93d 4cde 15be 48d2 d53d 86c3 7c3d
00000160: e1a6 353b 6431 193d 8df3 31be 2684 d2bd
00000170: d05d cabd 14a0 b33d e945 1c3d 7904 0abe
00000180: eebd 793d 2086 093e e74f e6bd d10f b0bb
00000190: 830d 8bbd 37c6 3c3c aca6 96bd 9f66 4bbe
000001a0: 7b15 233e 7071 21be cb58 84bd b8cb c1bc
000001b0: 3131 493d ee95 06be 2c84 0cbd 343c 2cbe
000001c0: 5ca2 f93c c628 06be 1bdc 313d d872 353e
000001d0: c287 61bd dc91 3dbe 913e 833d f1b6 e73d
000001e0: 665e 503e 3561 103d a85c c2bd 8d1a 96bb
000001f0: ce13 d9bd ff5c 903d b5f3 793d 157c c73d
00000200: 5dff 033a 122c c43c d467 243e 0f9e 39bd
00000210: 0c0a eebb 21a6 b3bd b923 2b3e 0d17 df3b
00000220: 6816 c7bd d3d3 6a3e 84fa 9d3d 28af 233e
00000230: ed9e f1bd 4a80 dcbc bdd6 913d c657 373e
00000240: a7e3 873d acac 053e 7bf1 2abe 68b7 87bd
00000250: 7f82 30bc 4cdc e03a c770 4d3d 3240 3fbe
00000260: fb36 203e 1215 4c3d 7a08 653d 8252 153e
00000270: 3623 163b a543 073e 97be 0f3e 3dce 1dbe
00000280: 907d c8bd c4dc 903d e70f 84bd 29c4 203e
00000290: 2d95 773d 5bcd 543e 2663 df3d 3550 b6bd
000002a0: 1161 ea3d c003 203e abba 94bd 693b 65bd
000002b0: 0f74 433d ebd0 e03d d0aa f83d b592 2fbe
000002c0: 1779 743c ab6a b9bd cccf a63c 4afb febd
000002d0: d7f8 843d 62b8 863d 0ed8 bdbd 3edb 0cbd
000002e0: e854 c13d 56cf 163e bf16 9fbd d340 0c3e
000002f0: a414 6bbe eb71 323d 9f8e e43b f392 10be
00000300: 6954 183c 7b58 59bd c54a 66bd 3f71 04be
00000310: 5dcf e1bd c7ac 2dbe f675 af3d e7d1 3e3d
00000320: 3c89 5b3d 59f1 083e f431 aebd be0b fdbd
00000330: ea33 953d 71f5 d6bd f6f8 e4bd cb67 99bd
00000340: c0cb d2bd 5f1d 773d 9bbb 333b 39c6 fe3d
00000350: 373c d1bd ed4d 273e d630 aabd bebd 5fbd
00000360: 476b acbc 7393 6dbd 5fa6 1b3e 3e12 d13d
00000370: a0f7 ac3d 0495 c7bd ebe2 77bd b656 0f3e
00000380: a2b0 b6bd d687 22be 87f6 f33d 29d3 96bb
00000390: fc6d 813d fea5 85bc 962c 813d db14 333e
000003a0: 959d 2bbe a03c 293e e1ac 7b3d 4a9d 583d
000003b0: f75b 6dbd 74ea dd3d 2b39 143d a76c 223e
000003c0: 59af 02bd b5d2 fb3d 2758 31bd b72d 23be
000003d0: 62eb 633d 0c9f 553e 3677 3dbd 1342 c9bd
000003e0: 2ffc 47be 7ee2 e2bc 801d af3d b381 febb
000003f0: bfd2 f63d 4d59 57bd 1165 42bd cccb a7bd
-0.011906562 -0.020290595 -0.14339231 0.029285498 0.005203599 0.109798424 -0.1674785 -0.01030526
0.12899996 -0.24326347 -0.0755211 -0.16557221 0.11006365 0.031650957 -0.086394474 -0.16722052
-0.062063895 -0.16061352 0.16132718 0.077447385 0.015860444 -0.018406812 -0.055458732 0.18513718
-0.17564036 -0.0434876 -0.056579493 -0.14492422 -0.008991201 -0.12584843 -0.16002719 0.17960207
0.11085342 -0.08083053 0.061355196 -0.14890523 -0.07872805 -0.21342644 -0.089153275 0.08834092
-0.11606434 -0.13722745 0.07688709 0.06470648 -0.06223898 -0.13604078 -0.13092528 0.19209354
0.0060439007 0.101054944 -0.040537916 0.11077082 -0.060110882 -0.07216711 0.0964351 0.028713774
-0.08150067 -0.16124311 0.07476697 -0.13245988 0.23337962 -0.028361931 -0.017346244 0.15538572
0.005054364 0.04204827 0.067123376 0.13665205 0.10771555 0.19338219 -0.09830176 -0.05559668
-0.061473057 -0.14549781 0.08850373 0.1195014 -0.07502854 0.10979452 0.10227367 0.07705466
0.1029938 -0.054768596 -0.015559527 -0.114653096 0.09058728 -0.14635581 0.104404986 0.061709903
0.0027717876 0.03740062 -0.17378063 -0.102791116 -0.098811746 0.08770767 0.03815261 -0.13478269
0.060972147 0.13430071 -0.11245709 -0.005372979 -0.067896865 0.0115218675 -0.07356009 -0.19863366
0.15926163 -0.15765929 -0.064622484 -0.023656711 0.04911918 -0.13143131 -0.034305736 -0.1681984
0.030472927 -0.13101491 0.0434228 0.1771959 -0.05506111 -0.18512672 0.06408418 0.1131419
0.2034851 0.035248954 -0.09490329 -0.004580802 -0.105994806 0.070489876 0.061023433 0.09740464
0.00050353055 0.023946796 0.16055232 -0.045316752 -0.0072643813 -0.08771921 0.16712846 0.006808168
-0.097210705 0.22932367 0.07713798 0.15984786 -0.11797891 -0.026916642 0.07121036 0.17904577
0.06635218 0.1305415 -0.1669368 -0.06626779 -0.0107733 0.0017155497 0.05015638 -0.18676832
0.15645973 0.04982478 0.055916287 0.14582255 0.002290917 0.13209398 0.14037548 -0.15410705
-0.09789574 0.07073358 -0.06448346 0.15699829 0.060445 0.20781462 0.10907583 -0.08902017
0.11444295 0.1562643 -0.072621666 -0.05596486 0.047718104 0.10977348 0.12141955 -0.17145808
0.014921448 -0.090535484 0.020362757 -0.12450273 0.06492775 0.06578137 -0.09269725 -0.034388773
0.09440023 0.1472753 -0.0776801 0.13696603 -0.22957093 0.043565672 0.0069750096 -0.14118557
0.009297469 -0.053062897 -0.05622365 -0.12933825 -0.110258795 -0.1696044 0.08567421 0.046586897
0.053597674 0.13373317 -0.085056216 -0.12355755 0.072852924 -0.10496033 -0.11180298 -0.074905
-0.102927685 0.060330745 0.0027425054 0.12440152 -0.10216563 0.1633832 -0.08310096 -0.05462431
-0.021047248 -0.058001947 0.15200184 0.102085575 0.08445668 -0.09745219 -0.06051914 0.13997921
-0.08920409 -0.1587213 0.11912256 -0.004602809 0.06319806 -0.016314503 0.06307332 0.17488424
-0.16759332 0.16527033 0.061444167 0.052884378 -0.057949033 0.10835734 0.036187332 0.1586176
-0.031905506 0.122960486 -0.04329696 -0.15935408 0.0556444 0.20861453 -0.046256267 -0.09827056
-0.19529794 -0.02769589 0.085505486 -0.007766926 0.120519154 -0.0525754 -0.047459666 -0.08193168

action_model._discrete_distribution.branches.0.bias f4 [2]
00000000: 0887 35ba 32a0 353a
-0.0006924723 0.0006928473

action_model._discrete_distribution.branches.1.weight f4 [3, 128]
00000000: 6b33 c5bd d6e2 e7bd e714 bcbc 6d86 6dbd
00000010: 066a 3abd ce62 17bc 1333 fdbb 308c 2bbd
00000020: 3b9e e1bc 8f4c 903c 6a76 3dbd 7f20 583c
00000030: 2df2 f0ba 17b8 b1bc 38c1 78bd d7af 483a
00000040: 15f8 f7bc 51b6 c13b ba97 a4bb 7ad6 f63c
00000050: c319 d2bd cb56 48bd 518b e1bb 4025 aabd
00000060: e5df 2c3d 91d8 cfbd 6ffd c3bc 7829 8abd
00000070: dc04 a8bd 605e 5e3d 7c04 3e3c 8967 a0bd
00000080: 10fa 8bbd 9b76 a2bd 135f 88bb cfc7 1d3c
00000090: ab5d 18bb 721f 3f3d eb5f 883c a46a 943c
000000a0: 3390 2d3d 2520 1a3d be32 fa3b f26b 30bc
000000b0: 8692 fdbd 8e02 41bd 6a2a 80bd c1c9 2c3d
000000c0: f419 98bc 2d1a 843b 8259 9fbd cf85 81bc
000000d0: 5c6e 263d a784 aebd 972d 8cbd c08c b43b
000000e0: 6607 54bd 36b1 fb3c c551 00bd 4568 21bd
000000f0: 1b18 8fbd 2eca 473d 9d3e b8bd 2121 29bc
00000100: 7d8c 9abd 8d75 3f3d 2a48 0b3c 6d5f 44bd
00000110: 4ffc 4c3d d856 a13c 2427 0bbc e644 50bd
00000120: dd4c 92bd 67b2 a23c 8aca e1bc 8244 15bc
00000130: 1dac f1bc 63a0 a43d af1c 18bd 56a0 e5bd
00000140: a963 453c 8001 083c 94e4 90bc 83d8 8abb
00000150: 9c3d e1bc 675d 1dbd 9899 47bd 60c1 88bd
00000160: 07bd 71bc 9b7c 93bd 29c8 02bc affb eabd
00000170: 0b33 dfbd 9e22 2dbd 03e6 bf3c b6d2 10ba
00000180: 25e0 8d3d d154 d5bd f574 993d fa4a 8eba
00000190: b248 c53d 6120 b3b9 155e 9abb 937c 53bc
000001a0: c657 153d f3e4 073d fdc7 073b 8043 42bd
000001b0: 1a52 f9bd 5a03 3e3d d9b0 af3c 8675 c4bc
000001c0: c697 d7bc 9cbc 623d 7cb7 283c 2961 8dbd
000001d0: 48be b03b f2ad 273c ce3b f23b 5038 45bc
000001e0: a8aa 9bbc c52f a2bd 7405 1c3d 2546 3ebd
000001f0: e0a9 823d 88b2 7dbc c85d 60bc ea56 51bd
00000200: d331 47be 7695 69bb 5289 173d 8eae 5f3e
00000210: 3837 2bbe d5b8 05be 8f36 0e3d 062e 37be
00000220: 081e 043e fdb2 3dbc c7d6 08be c76f c5bd
00000230: b55f 32bd 9e2c 573e ac37 2a3e 56b5 223d
00000240: e3b6 23be de57 413d 940b bebd 7291 cebd
00000250: 87dd 6a3e 8037 493e 762c 28be ef99 2c3e
00000260: 11c4 193d d4c2 d8bd 8a31 24bd 0d14 a33d
00000270: 8d3c 74bd d0a7 6f3d f329 943d 0a02 e43d
00000280: 4b7e 273e ace1 f5bd 0907 7dbd 970d 313d
00000290: 0456 1e3e 2bf0 653c 831a 7c3d 773b 3fbd
000002a0: 3da8 ae3c 13a3 d63d f0f5 5abd cbef 163e
000002b0: 8329 31be 8917 363e 90c9 82bd 939f f0bb
000002c0: eac3 2cbe 521f 10be db17 58be afff b9bd
000002d0: 993c 043e 6132 ffbd cacd 3c3e ccc0 55be
000002e0: 25b3 cdbd 59f1 9cbb e8f5 4fbe 06b9 58bd
000002f0: 8532 f53d 2d92 fb3d 76f1 1cbe 70c6 9a3d
00000300: f7ab f9bd c092 eabd 549c 073e 501c e33d
00000310: ca4a 28be ef73 2dbc 8756 39be 3fae 2fbe
00000320: c06c 17be bfeb b43d b69b 083e 55d8 03bd
00000330: 7249 b03d be37 4dbe f0e7 be3d 1e11 06bd
00000340: 1a22 58bd 73bc 093e c4c8 4d3e 4e20 9a3d
00000350: 770e 423e 4f07 7a3b 8295 adbd 77ae 413e
00000360: cecc 3fbe 3bed 283e 9be1 a23d 42f8 df3d
00000370: c3f8 4bbc ccd9 1ebd 91a9 223e f2f9 87bd
00000380: 4b1e babd 7f81 1d3e f08d 6b3d b2bf fc3d
00000390: 3873 8c3b 1744 333e e897 cd3d f1da b2b9
000003a0: 2a28 84bc 1a0f 9c3b edb0 f13d 9c80 373e
000003b0: b938 eebd a531 33bd b4a6 293e 2769 3abb
000003c0: 4b5a bcbd 1432 e73b e0e9 313e e34d 0e3e
000003d0: 9a42 ee3d 7565 8738 bd32 2d3e 9442 f23d
000003e0: 9a1b 923d 2b92 b0bd afc3 2abd d673 323e
000003f0: 5e90 35bb d454 1d3e c5d0 183e df12 b13d
-0.09628948 -0.113225624 -0.022959186 -0.057989527 -0.045511268 -0.0092398655 -0.007727036 -0.04188174
-0.02754127 0.017614631 -0.046255507 0.013191341 -0.0018382721 -0.021694226 -0.060731143 0.0007655597
-0.030269662 0.0059116264 -0.00502297 0.030131567 -0.1025882 -0.048910897 -0.006883063 -0.08307886
0.04220571 -0.10148729 -0.023924557 -0.06746191 -0.08204052 0.05428922 0.011597749 -0.07832248
-0.06834805 -0.079327784 -0.0041617244 0.009630158 -0.002324919 0.046660848 0.0166473 0.018117256
0.042373847 0.03762831 0.0076354435 -0.010767924 -0.12381463 -0.047121577 -0.0625809 0.042184595
-0.018567063 0.0040314407 -0.07780744 -0.015810875 0.04063259 -0.08521395 -0.06844633 0.005509943
-0.05176487 0.03072415 -0.03132798 -0.03940608 -0.0698702 0.048776798 -0.089963175 -0.01032284
-0.07546327 0.046742965 0.008501092 -0.047942568 0.050045308 0.01969473 -0.008493219 -0.050846957
-0.07143567 0.01986046 -0.027562398 -0.009110572 -0.029501015 0.08038404 -0.03713673 -0.11212222
0.012047687 0.008301139 -0.01768712 -0.004237236 -0.027495198 -0.038419154 -0.048730463 -0.06677508
-0.01475454 -0.07201501 -0.007982292 -0.11473786 -0.108984075 -0.04226934 0.023425108 -0.00055245624
0.06927518 -0.10416568 0.07493011 -0.0010856085 0.09633006 -0.00034165665 -0.0047109225 -0.012908119
0.03646066 0.033177327 0.0020718568 -0.047427654 -0.12173863 0.046389915 0.021446632 -0.02398182
-0.026317488 0.055355653 0.010297652 -0.069032975 0.005393777 0.010234343 0.007392383 -0.012037352
-0.019002274 -0.079192676 0.038091138 -0.046453614 0.06380057 -0.01548446 -0.013694234 -0.05110828
-0.194526 -0.0035642064 0.036996193 0.21843931 -0.16720283 -0.13058789 0.03472 -0.1788865
0.12902081 -0.011578319 -0.13363181 -0.096404605 -0.043548305 0.21013114 0.166228 0.039723717
-0.15987734 0.047202937 -0.09279552 -0.10086335 0.22936068 0.19650078 -0.1642321 0.16855596
0.0375405 -0.105840355 -0.040086307 0.07962809 -0.05962806 0.058509648 0.07234564 0.111332014
0.1635677 -0.12005934 -0.061774287 0.04322585 0.154625 0.014034311 0.06154872 -0.04668757
0.021320457 0.10480323 -0.0534572 0.14739911 -0.17300992 0.17782415 -0.06386101 -0.0073432415
-0.1687161 -0.14074448 -0.2110285 -0.09081971 0.12913741 -0.12460781 0.18437877 -0.20874327
-0.10043935 -0.004789513 -0.2030865 -0.052910827 0.119725265 0.1228374 -0.15326485 0.0755738
-0.12191003 -0.114537716 0.13243228 0.110893846 -0.1643478 -0.010586723 -0.18099414 -0.17156313
-0.14787579 0.088340275 0.13340649 -0.032188732 0.086077586 -0.20040795 0.09321582 -0.032731168
-0.052766897 0.13450794 0.20096117 0.07525693 0.1895083 0.003815133 -0.08475782 0.1891421
-0.1873047 0.16496746 0.07953187 0.10936023 -0.012449446 -0.038781926 0.15884997 -0.0663947
-0.09087809 0.1538143 0.05750841 0.123412505 0.004286196 0.17506443 0.100387394 -0.0003411393
-0.016132433 0.0047625424 0.11801324 0.17920154 -0.11631913 -0.043748517 0.16567498 -0.0028444023
-0.091969095 0.0070555303 0.17374372 0.13896899 0.11633797 6.4561995e-05 0.16913886 0.11829105
0.07134171 -0.08621629 -0.041690525 0.17427 -0.0027704458 0.1536439 0.1492339 0.086461775

action_model._discrete_distribution.branches.1.bias f4 [3]
00000000: a040 b23c 2eab 6cbc 091c 0f3c
0.021759331 -0.014445109 0.008734711
