Assets/brains/CarAI10.onnx (onnx, 97358 bytes, 9 tensors)

discrete_act_size_vector f4 [1, 2]
00000000: 0000 0040 0000 4040
2.0 3.0

network_body._body_endoder.seq_layers.0.weight f4 [128, 41]
00000000: 3700 113e 893a bfbe ce07 edbd 7b92 0abe
00000010: 1595 21bd 8e3e f63c 46f2 9abe a058 15be
00000020: e6c4 afbd 6d31 d43d 20eb 173e 910c 5c3e
00000030: b76b 683d 3fd4 90bd 1d8c d63c 10d5 283d
00000040: b76a 0fbe 2525 273e f289 b53e 353f be3e
00000050: 7945 c93c 37bd 343e d9a0 73be 59d2 093d
00000060: e31c 2c3e fae8 95bd bf24 4b3e e1b1 0b3e
00000070: 3e5b 32be 1d5e 803d 4745 68be e27a 883e
00000080: e3b9 8a3d 2207 12bd c508 36be e362 f9bd
00000090: f3c7 9b3d 937e 6a3d 2241 08bc d658 173d
000000a0: 035c dc3c e34b 383d 08c0 edbc 6a3e bc3d
000000b0: a988 29bd 8477 81be 74cc f4bc d81b 843d
000000c0: 1c27 8cbe 9018 b33e 0b73 233d 2f51 96bc
000000d0: 15f5 513d 23d9 5ebd e710 bb3d 4cfb 8abe
000000e0: d75e 31be b0d0 743b 5a69 d7bd f600 8dbd
000000f0: cf7c 173e 1425 453e 5507 bd3e 811c 993e
00000100: 86c4 303d a197 d73d a968 8abd 748c a8bd
00000110: 414f e8bc ab61 1b3e f976 a03d 236e 623d
00000120: ed6e 32be 4781 89be 2882 dabd 6d0e 90be
00000130: 1d56 e1bc 1368 95be ba21 a4be c05b 4ebd
00000140: 5b11 da3d 3c40 3cbd 7e3c e03e 2e00 75be
00000150: 20c7 73be 53d3 7cbe 5d28 a73e e053 06be
00000160: 2076 713c 6417 d7bb ab1f 6cbe 110a 4b3e
00000170: 820c 443e 64ca 07be 2d57 cdbd 54ac 3e3e
00000180: e1bc 90bc 44a1 473d bc2a 4abe fa30 843e
00000190: 41dd b83e 3572 69bd e329 7e3e 091c 08be
000001a0: 2b0a a0be 85cf fabd 8f11 3b3d f6cc 903e
000001b0: 63ef 1b3d 2bee 1d3e f8fc b03b 317e 94bd
000001c0: 7ff7 73bd 0735 ab3d 85da 0a3a b3b4 363e
000001d0: 5142 393e 365d 9d3e 3636 a7bb 1c5d 63be
000001e0: e5fa 53bc 23f9 0c3d 54b7 b03e ef49 b2bd
000001f0: 0028 453e 3586 36bd dfbf 3bbd c29b a1bd
00000200: 2688 15be d4ec 44be 74bb 133d 45d7 683e
00000210: 0757 97be 3fd7 cd3e 1c24 82be 1424 d83e
00000220: 7a60 7fbe 5655 f73d 1467 35bd 80c7 963d
00000230: 4b4c ba3e d713 b63e ff2c f33d 0f93 f0bd
00000240: c1ff 69be d974 08be 33e1 c83d 7ff3 183d
00000250: ebe8 9b3e 41ac 2ebe 1cb5 e93c 0340 c7bd
00000260: 880a e93d 4ce3 45be 4ff2 083d 8442 093e
00000270: e702 b53e 4f97 c33d 20a9 583e 49b9 4d3d
00000280: 7613 ad3d 46ea 123b a17a 563d 279b 89be
00000290: 7fdb 483e 7319 f1bc 0aff e9bd 7ceb e2bd
000002a0: 92c7 303e ac80 b33b 49db c53d b5cd 083e
000002b0: 2ee3 33be d43f 763c 981b aabd d852 06be
000002c0: 692c 8f3c 868b b8bd e291 2ebd bc36 e83d
000002d0: a5c9 adbe 30fb 073e 4896 d63d 4e31 edbd
000002e0: eb8c efbd f8fa c73d 954d 18bf 07a6 cbbe
000002f0: eb92 7dbb 19dc 043e 1786 87bc 82e4 66be
00000300: f76f 163e 6801 65be 771d 1ebe 56a2 813e
00000310: 0854 04be 2d21 c13d fb0d 1e3d 235e a3bd
00000320: 2916 5b3b efac 68be d9a1 abbc 0b03 43be
00000330: 64c4 303e 0876 9abc e25f 503d ba4e 2f3e
00000340: 5446 56be 8732 05bd 563f b43e 31d1 993e
00000350: ed03 aabe c6f2 353e 1564 09be 43f9 203d
00000360: 42b8 85bd e8cc 54be 7e50 1c3e 252e 4f3d
00000370: db86 ebbe 1d5f b43d 439e 07be 428d 03bd
00000380: b83a eb3d 8519 8ebd c9c2 16bd 9224 5d3e
00000390: d7e6 3cbe cd30 543d 471b 02bd 7175 713e
000003a0: f0a5 d23e 8f07 3b3e 76d7 103e 2587 99be
000003b0: 3f93 7cbd 81fb 3c3e 5769 e83d dbef 683d
000003c0: 88eb 103d 42ab e4bd 39a6 863c 6d11 353e
000003d0: 952f a1be 4ca8 3f3d bd48 dcbc 6a18 5c3e
000003e0: 6c4d e2bd f2db e1be b3d9 49bc fa37 293e
000003f0: 1757 af3e 2952 c0bd a95e 243e db4a 873e
0.14160238 -0.37349346 -0.11573754 -0.1353244 -0.039448816 0.030059125 -0.30262965 -0.14584589
-0.08582477 0.1036099 0.14835787 0.21489169 0.05674335 -0.07071733 0.026189858 0.041218817
-0.14005552 0.16322763 0.35456806 0.37157598 0.02456926 0.17650305 -0.23791827 0.03364787
0.16807894 -0.073198274 0.19838236 0.13642074 -0.17417619 0.06267951 -0.22682677 0.26656252
0.06773736 -0.035651334 -0.17776783 -0.12177064 0.07606497 0.057249617 -0.00831631 0.036949955
0.026899343 0.044994246 -0.029022232 0.09191592 -0.041390095 -0.25286496 -0.029882647 0.06450623
-0.27373588 0.34979677 0.039904635 -0.018349258 0.05125912 -0.054406296 0.09134083 -0.2714485
-0.17321335 0.0037355833 -0.10518141 -0.06884949 0.14793704 0.19252425 0.36919656 0.2990456
0.04315617 0.10526968 -0.067582436 -0.08229914 -0.028358104 0.15173976 0.07835192 0.055280816
-0.17425127 -0.26856443 -0.106693566 -0.28136006 -0.027506882 -0.29180965 -0.3205698 -0.05038047
0.106478415 -0.045959696 0.43796152 -0.2392585 -0.23806429 -0.24689989 0.32647982 -0.13117933
0.014737636 -0.0065640677 -0.23058955 0.19828059 0.19145396 -0.132608 -0.10026393 0.18620425
-0.01766819 0.04873778 -0.19742864 0.25818616 0.36106303 -0.056993682 0.24820666 -0.13291945
-0.31257758 -0.122466125 0.045671042 0.28281373 0.038070094 0.15422885 0.00540125 -0.072506316
-0.059562203 0.083597235 0.0005296844 0.17842369 0.18091704 0.30735177 -0.005102898 -0.22203487
-0.012938236 0.034417283 0.34514868 -0.08705508 0.1925354 -0.044561584 -0.04583728 -0.078910366
-0.14602718 -0.19230968 0.03606744 0.22738369 -0.29558584 0.40203282 -0.25418174 0.42215025
-0.24939147 0.120768234 -0.044287756 0.0736227 0.36386332 0.35562012 0.11873817 -0.11746799
-0.22851469 -0.13325824 0.09808578 0.03734159 0.3045114 -0.17057897 0.028528742 -0.09729006
0.11378962 -0.19324988 0.03343421 0.1340428 0.35353777 0.09550344 0.21158266 0.05022553
0.084509775 0.002241747 0.05236304 -0.26876184 0.19614981 -0.02943108 -0.11425598 -0.11080071
0.1726363 0.0054779854 0.09660966 0.13359721 -0.17567131 0.015029866 -0.08306044 -0.1311754
0.017477231 -0.09010987 -0.042619593 0.11338565 -0.33942905 0.13279414 0.104778826 -0.1158167
-0.116968 0.09764665 -0.5949338 -0.39775106 -0.0038692306 0.12974586 -0.016543431 -0.22548106
0.14691149 -0.22363818 -0.15440927 0.25319165 -0.1292268 0.09430156 0.03858755 -0.079769395
0.0033429957 -0.22722219 -0.020951198 -0.1904413 0.17262417 -0.01885511 0.05087269 0.17119876
-0.20925266 -0.03251889 0.3520457 0.30042413 -0.3320612 0.17768392 -0.13417085 0.039300214
-0.06529285 -0.2078129 0.1526508 0.050581116 -0.46001324 0.08807204 -0.13243966 -0.032117136
0.11485809 -0.06938461 -0.036806855 0.21595982 -0.18447433 0.051804353 -0.031764295 0.23579957
0.41142225 0.18264602 0.14144692 -0.2998592 -0.061663862 0.18455316 0.11348217 0.05686937
0.03538087 -0.11165477 0.016436683 0.17682429 -0.31481615 0.04679136 -0.026890153 0.21493688
-0.11049923 -0.44113117 -0.01231997 0.1652526 0.34246132 -0.09390671 0.16051735 0.26424298

network_body._body_endoder.seq_layers.0.bias f4 [128]
00000000: f592 3fbc 22a0 243d 1396 d53c 06fe cf3a
00000010: 594e a03c f6ee 4d3b ac8c ef3c c9ab 703d
00000020: 0e2c de3d 7bf8 993c 1c67 343d 0f1e df3c
00000030: 3afc bb3c d223 823d 7659 1b3c 1658 4bba
00000040: 74d0 9a3c 6cb5 2dbd 6f11 433d 92ca 9e3c
00000050: 10ec be3c f715 2aba c34c 79bb 9c91 2c3d
00000060: 027c 213d 82b5 5e3b 9032 23bc 6236 083b
00000070: 74d6 eb3c a89a d8bc 753c 323d 69fc 613c
00000080: ab91 233d 1b52 273b 453d 143d 7a24 5abb
00000090: c1a8 db3c 7e72 db3c b9a7 d93c 9dc0 f43c
000000a0: 469f 2a3d 6fd0 973c 2a8e d83c beee a63c
000000b0: fd5d b03c d078 44bc 2965 933c 102f 60bc
000000c0: eeff 573b 93e7 c63b 879d bb3d ccfd 11bc
000000d0: 5e27 1bbc 0fa2 b53c f848 1f3d 61a0 f43c
000000e0: 3988 3b3d 2fa3 2b3c a23b 4d3d 3366 abbb
000000f0: 90e2 ba3c 6760 283c f6c4 d13b aab7 f63c
00000100: 9838 863c 0fc4 8b3c 2893 0cbb e97a b63b
00000110: 72d3 f13c 5c7b 51bc 6891 a73c 6bb6 5d3d
00000120: 6e1d 043c 3373 ad3c 402a 7f3d cad0 253d
00000130: c157 a2bd 6bb4 303d 3379 9c3c e901 e13c
00000140: 6462 80bc ee56 05bd f31c f83c 4f80 87bc
00000150: c0aa e43c 464b 9abd a465 d53c 84e9 253d
00000160: b181 023d 0612 103d bde7 013c 16cb 933c
00000170: 04d5 173c 0ee3 733d be96 8b3c a1fe 883c
00000180: bc34 573c 3ed8 c8bc 8f62 983d 7769 663d
00000190: 5846 31bc 82b8 9a3d 4ebb dcba bc6f e73c
000001a0: 3bc9 4f3c 41b5 783d 28da af3c 2a39 f3bc
000001b0: dd58 053d 2eca af3c 96f1 82bc 38d0 ab3c
000001c0: adb7 443d 6d03 5d3c 7dfe 343d 5d2d 033b
000001d0: 49b3 033c e49d 833d 3228 0a3c 5043 9cbb
000001e0: 4f05 2d3d 5c7c f83c e407 64ba ad8b 233d
000001f0: c840 b93c 7936 2d3c 136f 453c 84f5 a03b
-0.011692752 0.040191777 0.026072538 0.0015868552 0.01956861 0.003142295 0.029241882 0.058757577
0.108482465 0.018795243 0.044043645 0.027236013 0.02294742 0.063544884 0.009481778 -0.0007756961
0.018898226 -0.042409346 0.047624048 0.019383702 0.023305923 -0.00064882584 -0.0038040138 0.04213105
0.039424904 0.0033982699 -0.0099607855 0.0020784368 0.028788783 -0.026440933 0.043514688 0.013793089
0.03993384 0.0025531116 0.036191244 -0.0033285902 0.026813867 0.026787993 0.026569234 0.029877001
0.0416558 0.018532006 0.026434977 0.020377513 0.021529192 -0.011991695 0.017992573 -0.013683096
0.0032958942 0.0060700863 0.09160905 -0.008910608 -0.009469835 0.022172002 0.038887948 0.02986163
0.04578421 0.010475918 0.0501057 -0.005230689 0.022813112 0.01027689 0.0064016534 0.030116875
0.016384408 0.017061261 -0.0021450017 0.0055688513 0.02951977 -0.012785759 0.020455077 0.054129045
0.008063657 0.021173095 0.062296152 0.04048232 -0.07926894 0.04314081 0.019100761 0.027466731
-0.015671916 -0.032553606 0.030287242 -0.016540674 0.027913451 -0.075338885 0.026049443 0.0405059
0.031861965 0.03517344 0.007928786 0.018041175 0.0092670955 0.059542708 0.017039653 0.016722979
0.013135131 -0.024517175 0.074406736 0.056252923 -0.010819994 0.07554723 -0.0016840489 0.028251521
0.012682254 0.060719732 0.02146633 -0.029690344 0.03255545 0.021458711 -0.015984338 0.02097331
0.04802673 0.013489586 0.04418801 0.0020016052 0.00803835 0.064265996 0.008432435 -0.0047687665
0.04224139 0.030332737 -0.00086986856 0.039928127 0.022613898 0.010572069 0.012050408 0.0049120802

network_body._body_endoder.seq_layers.2.weight f4 [128, 128]
00000000: 202c 213d 20eb ed3c eae1 99bd f5be b33d
00000010: 3b39 c3bd a69d 9e3d 97d4 a8bd 054c 41bd
00000020: 50de a73e fe29 1fbd 855a 20be 3ca0 96be
00000030: 2420 053e 4e83 1a3e 9c32 f23d 1b0d d03c
00000040: 8045 9abe 0120 4abe 9d8b d23d 0285 0b3e
00000050: fe5e 0dbe decb aabd ed27 b23b 6f33 2abd
00000060: 8a70 95be 3f8b f5bd d228 edbc 0c52 59be
00000070: 43b0 62bd 4114 a83d 04c2 0abe 7c57 743d
00000080: 0911 62bd 823c 8a3d 297c b03d 3834 11be
00000090: 4196 91bb 4a33 773e ca72 6ebe 3933 203d
000000a0: 43e5 1fbd 7899 f9bb 4966 823e fc05 af3c
000000b0: ec74 753e af91 203e 925e 263e 692d 21bd
000000c0: 4ebd 17be 32f0 213d 1e93 5dbe 7510 94bc
000000d0: 5429 fb3d aa6c 3abd caaf 453c b8f4 5ebe
000000e0: 0c9a e33b 82f8 4ebe e9d1 37be 2c02 0d3c
000000f0: e480 7cbe 80ed 7e3c 085f 443d b483 5ebd
00000100: 6072 d93d 7439 073d 2293 b9bc 53c3 323e
00000110: 9dac 1a3e 93a7 9f3c a872 ddbe 5fd8 623e
00000120: d3f8 53bd 53e5 a13d 459d 113c f1d5 f43d
00000130: 5db1 4d3e 398b 9e3b 5798 fb3d 7fa6 e2bd
00000140: 68e2 743e 3604 c03d b651 063c d7a7 f6bd
00000150: dd71 57bd 98ae bcbd eba8 a43d 1164 88be
00000160: 929a cc3c 726c 05be dee8 e0bc 9900 f93d
00000170: a6b7 41be b558 053e 78f4 a2bc 8706 053c
00000180: 0caf 4dbe 9f8f e43d e70e 553e d5b5 f43c
00000190: 89b4 2ebc 86ad 233e 7fc7 cf3d 89b8 47bc
000001a0: 29fb 2ebd b9f0 bebd 19f7 d33d 827a 7ebe
000001b0: 811a aebd b8d8 c53d 68f1 213d 2163 aa3c
000001c0: 6ca9 bf3d a7d6 ebbc 8d0c ccbd d617 2e3d
000001d0: 653f 743e 0ceb c83d aafc 433d 67b1 d93c
000001e0: 3727 273e badc ce39 cd4c 9ebc ecf9 773e
000001f0: 22ac da3d 62ad 173e 8c27 e8bd 4402 9c3d
00000200: 8368 1f3d a757 8bbe 212f 9abc 388a 793e
00000210: c183 3e3e c276 19be 178e 88bc cc23 0abd
00000220: 7330 cebc 91d9 fb3c 6056 08bc 29e8 203e
00000230: 6f4a 94bd c84c 6fbd 7cf0 16bd 33e4 4a3e
00000240: f6fb 003e 007e 013e 7129 ea3d a42f a53c
00000250: 4304 a5bd 37cd 03bc 034e c23d b6eb 0abe
00000260: 2dd0 84bd 6254 4c3e a977 36bd cbce 523e
00000270: f512 f13d c343 fdbb 4a32 5d3e 8aff 74bd
00000280: d76c 3f3d f4f4 9a3d 66fa a53e 5d55 aebd
00000290: 7af6 00bc 3552 69bd 79a8 943e 7619 ac3c
000002a0: 81c9 a5be 62a5 abbc 640f d5bd 503f 3c3e
000002b0: 48b9 c1bd daa0 d53d cf1a 003e 26d9 f3bd
000002c0: aaab a8bd ed4b 8a3d 3eb7 4fbd 7629 373e
000002d0: 2046 edbc 0b88 6a3b 15ae b8bb bcca 19be
000002e0: 7fb0 0cbe 447b 04be 7b8e 8e3d 54bf adbd
000002f0: c9d8 07ba 8ac1 853c 4ffd 05bd 6842 02be
00000300: fe88 6e3d f380 63bd 6ed2 d3bd 4c05 c2bd
00000310: 5576 b3bd 537a 4fbd a342 7b3d 4e9a 91bd
00000320: e922 73be a463 e3bd 8927 9e3d 9b42 2abe
00000330: a99a c8bd c3ae 813c 7b24 20bc 1b44 5a3e
00000340: 6144 44be 64d3 9eb9 4a6c f63d 9b77 293e
00000350: 43a7 5c3c 7ec3 623d 5fb2 1ebd a2c2 8f3e
00000360: a12e 94bd 6f55 203e 650b 33be 7da9 e9bd
00000370: 1362 e13c fdf3 c4bd aba3 873e acc8 50bd
00000380: 6f8a b43d 70e5 01be 13fc 413e 6246 89bc
00000390: bb38 223c 5ffe 22be d5a2 393e 456d 4d3e
000003a0: 22c9 efbc a627 c0bc c51c 4c3e e9b0 6c3d
000003b0: 92ca 763d 3d99 81bd 5795 b8bc 75da f83c
000003c0: 382a ff3c 11a7 063e 30a6 a53c 0589 2d3e
000003d0: 8175 30be ad4d aabe fce4 c43d fa95 6bbd
000003e0: a550 56bc 3577 a8bd 4f32 9ebd 95ac bbbe
000003f0: 6049 b63d 3067 17be 7b77 be3d 9d69 8abd
0.03934872 0.02904278 -0.07513793 0.087766565 -0.095324 0.07744913 -0.08243673 -0.04719164
0.32786798 -0.038858406 -0.1565953 -0.29419124 0.13000542 0.15089151 0.11826059 0.025396874
-0.3013115 -0.19738771 0.10280535 0.13624957 -0.13805768 -0.08339666 0.0054368884 -0.041552957
-0.29187423 -0.1198945 -0.028950129 -0.21222705 -0.055343878 0.08206988 -0.13550574 0.059653744
-0.055192027 0.06749822 0.08617432 -0.14180076 -0.0044429605 0.24140659 -0.23285976 0.03911135
-0.039037 -0.007617172 0.25468662 0.021365158 0.23970383 0.15680574 0.16247013 -0.039349947
-0.14818308 0.03953571 -0.21638152 -0.018074254 0.12263742 -0.045513786 0.012065837 -0.2177304
0.006945854 -0.20211986 -0.17951168 0.008606475 -0.24658543 0.015559554 0.04794219 -0.05432482
0.106175184 0.033013776 -0.022653166 0.17457323 0.15104909 0.019489085 -0.43251538 0.22152852
-0.05175097 0.07905068 0.008887594 0.119548686 0.2008719 0.004838374 0.12284916 -0.11066913
0.23914492 0.09375803 0.008198192 -0.12043732 -0.052598823 -0.092129886 0.08040031 -0.26638845
0.024976049 -0.1302965 -0.02745479 0.12158317 -0.18917713 0.1302212 -0.019891962 0.008119232
-0.20086306 0.11160206 0.20806466 0.02987186 -0.01066316 0.15984163 0.10145473 -0.012189993
-0.042719994 -0.09323258 0.103498645 -0.2485142 -0.08501149 0.096604764 0.039536864 0.020799221
0.093584865 -0.028788878 -0.09963331 0.0425032 0.23852308 0.09810457 0.04784838 0.02657385
0.16323553 0.00039455836 -0.01932373 0.24216431 0.10677363 0.14812234 -0.11335668 0.0761762
0.03891803 -0.2721531 -0.018821301 0.24369133 0.18604948 -0.14986709 -0.016669316 -0.033725545
-0.025169587 0.030743392 -0.008321375 0.15713562 -0.072407596 -0.058422834 -0.036850438 0.19813614
0.12596115 0.12645721 0.114336856 0.020164318 -0.080574535 -0.0080445325 0.09487536 -0.13566479
-0.06485019 0.19954064 -0.04454771 0.20586698 0.11771194 -0.007729025 0.21601215 -0.059814014
0.046734657 0.07566252 0.324176 -0.085123755 -0.007871265 -0.056963164 0.29034784 0.021008234
-0.32380298 -0.020952884 -0.10403326 0.18383527 -0.09459168 0.104310706 0.12510227 -0.11906652
-0.08235867 0.06752763 -0.050711863 0.1788691 -0.028964102 0.0035786654 -0.0056359866 -0.15018743
-0.13739203 -0.12937647 0.0696077 -0.084837586 -0.0005182145 0.016327638 -0.032712277 -0.12720644
0.058236115 -0.055542897 -0.10342871 -0.094736665 -0.087628044 -0.050653767 0.061342847 -0.071095094
-0.23743786 -0.11102989 0.077223845 -0.1662697 -0.09795124 0.015830403 -0.009774323 0.21315043
-0.1916671 -0.00030293607 0.12032373 0.16549532 0.013467613 0.055362217 -0.038744327 0.2807818
-0.07235456 0.1565759 -0.17484815 -0.114092804 0.027512586 -0.096168496 0.26492056 -0.050972626
0.088154666 -0.1268518 0.18943815 -0.016757194 0.009901221 -0.15917347 0.18128522 0.20061214
-0.029270712 -0.023456406 0.1993285 0.057785902 0.06025178 -0.06328056 -0.022532148 0.030377606
0.031148061 0.13149668 0.020220846 0.169468 -0.17232324 -0.33262387 0.09613988 -0.057516076
-0.013080751 -0.08225862 -0.07724439 -0.36655107 0.08900714 -0.14785457 0.09300133 -0.067584254

network_body._body_endoder.seq_layers.2.bias f4 [128]
00000000: b5a3 723c b437 b7bc 1add 213d 40e9 613d
00000010: 4269 4b3d fa34 093c ffe2 603d e764 cbbb
00000020: 3d15 483d 3ed6 133c 2c49 383d 888a 393d
00000030: 2916 4e3d 0e20 4f3b 242a 403d 9470 013d
00000040: 271b 843c 83a7 a63c ef7a 583c 1157 823d
00000050: 73a8 743d 364d 583d ea01 e03c a572 0a3d
00000060: 3598 543d 36e7 213d a24d 243d de8b 303d
00000070: a1e9 1d3d c89c fc3c 2d59 273d b755 0b3d
00000080: d28f 4d3d 6b97 f03c b85d 023d fdc1 443b
00000090: 1f87 1d3d ab10 8e3c ae04 883d 0575 dd3c
000000a0: 996d da3c 5d3c 543c f661 3a3d a1e5 633c
000000b0: 8ece 683d a326 ec3c 3310 1c3d ead1 bf3c
000000c0: bbcb ee3c e6c4 343d 06d0 163d 5ac9 b6ba
000000d0: a584 793d 1fd9 6e3d 4cdc 0b3d 42cc c33c
000000e0: 01fc bb3c 885d a63c 3042 0f3d 2aa3 d13c
000000f0: 4659 4a3d ae85 a03c d4fa d73c bf11 723c
00000100: 60dd 433d 7f31 e7bc 47c9 173c 465c ff3c
00000110: 7ba6 b63c 57e3 463d 4e5c 1c3c 862a ff3c
00000120: 34d1 9c3c 6838 d23b 50f1 923c 119d 4b3d
00000130: b185 793b c242 803c cf4a d13b 7eae 3c3d
00000140: 6712 2dbc 7d36 fb3c d948 b53c c23f 1b3c
00000150: fb2c 18bd 7b30 df3c d13c a43b 63bb afbd
00000160: 1e4c 37bc 896f 363c d331 b9bb 55b4 3d3c
00000170: e46d c53c 59b4 d83c 0d91 463d 938d 763c
00000180: 0e64 81bc 57ae e43c b78a 543d 17fd 003d
00000190: cd57 983c 1682 023d 06fd ab3c 5d91 0b3c
000001a0: ae7d ab3c 2924 603d 6da2 87bd ed14 6d3d
000001b0: d306 9a3b f847 c8bc 2b34 113d 886d a53c
000001c0: fea1 1a3d a4f7 923b 11c7 633c 57fb 2d3d
000001d0: 5c5f c53c aad0 843d dab5 303d 42b2 0e3d
000001e0: cb5b cb3c 17ce b83c 52c8 8439 7994 273d
000001f0: 457b 093d bcad 2cbd 1914 f93c 11cc 9e3b
0.014809539 -0.022365429 0.0395175 0.055154085 0.04966093 0.008374447 0.05490398 -0.006207097
0.04884838 0.009023247 0.044991657 0.04529813 0.050314102 0.00316048 0.04691519 0.031601503
0.016126228 0.020343548 0.013212903 0.06364263 0.05973096 0.05280801 0.027344663 0.03380074
0.05190297 0.03952714 0.0401131 0.043102138 0.038552884 0.030836478 0.04085653 0.03401729
0.050185986 0.029369077 0.03182766 0.0030022853 0.03845894 0.017341932 0.066415176 0.027033338
0.026663588 0.012953845 0.04550358 0.013909728 0.05683761 0.028827017 0.038101386 0.023415525
0.02914988 0.04413309 0.03681948 -0.0013945505 0.060917515 0.05831253 0.03414564 0.023901109
0.022947313 0.020308271 0.03497523 0.025590498 0.049401544 0.019594993 0.026364721 0.014774739
0.04781854 -0.028221844 0.009264297 0.03117193 0.022296181 0.048556652 0.0095434915 0.031148206
0.019142725 0.0064154156 0.017937332 0.049710337 0.003807407 0.015656833 0.0063870917 0.046064846
-0.0105634695 0.03066563 0.022129463 0.00947565 -0.03715227 0.027244797 0.0050121327 -0.08580663
-0.011187581 0.0111349905 -0.0056516915 0.011578639 0.024100251 0.026453184 0.048478175 0.015048402
-0.01579478 0.027915163 0.0518901 0.031491365 0.018596554 0.03186234 0.020994674 0.008518544
0.020933952 0.054721985 -0.06622777 0.057881285 0.0047005205 -0.02444838 0.035450142 0.02019383
0.037752144 0.0044850875 0.013902442 0.042476024 0.024093322 0.06485112 0.043142177 0.03483797
0.024824044 0.022559209 0.00025326252 0.04091308 0.033564825 -0.042157874 0.030405091 0.004846104

action_model._discrete_distribution.branches.0.weight f4 [2, 128]
00000000: f529 383c 0ee6 423d de36 0abe 5df8 303e
00000010: 4f36 803d 8f23 493d a2f7 423d 00db 6fbd
00000020: 75f6 043d da8a 8c3d 59aa 313d 6c5b 1b3e
00000030: eed4 c4bd 5dfd 953c 37bf ce3d bb94 a73d
00000040: b547 fb3c d62d e53d 4e7e 693d a2c4 1e3d
00000050: 0034 0fbe 0000 1eba 7c3a 87bd a480 fbbd
00000060: 25dc 0d3c e2f6 45be abc2 ebbd 5d48 26be
00000070: 9dde ad3d 64b2 abbc b352 083e 2731 91bd
00000080: 287a 21b9 4964 11be 2b50 f33c 7eee 06be
00000090: 6aa0 553e 47aa f33d 6957 293d 9568 21be
000000a0: 98d7 15be cac4 fdbd eb5e 993e e157 803c
000000b0: 94f0 573e 89a4 943d de8c c63d 9d61 13be
000000c0: 69e3 123e 711b f13c cccf f23d 834c 2bbd
000000d0: fd18 b6bc 9b20 793c 2658 e3bb cc42 26bc
000000e0: 98ad 9d3d 6c22 b3bc 8efb 8d3c 7dd7 cebb
000000f0: b509 603d b6a5 2cbe 765f 873d 68a2 04bd
00000100: 09c2 1f3e 837a 953c 1d8e 03be 5dab 1ebc
00000110: 1211 8ebd e7db a7bc cacc 8a3d 74d5 04bd
00000120: 8b10 fbbd a436 07be 064c 183d b4f3 19be
00000130: 60d6 2f3c d155 be3d 341b 4ebd ded2 82bc
00000140: e9d0 9eba 36fd 2cbe 94b2 81bd bffb a83c
00000150: 0424 2b3d 1031 1b3e b79a e5bd 0cd4 21bb
00000160: 2ee7 973d 4627 843d 82c6 323d 8ddb e3bc
00000170: 28d6 81bc 9dbc a13c 27b8 873d b245 f6bd
00000180: abc7 2bbd 4b5b 9d3d e24a dc3d 5b45 cb3d
00000190: d15c 1d3d dce1 e9bd 7e63 05bd 8ef2 5c3d
000001a0: 25b6 983c 4328 363d 690b 0c3d 5a6f 923d
000001b0: 3653 ef3b 779b 5fbd 712d 153e 0476 f23c
000001c0: 45e7 503e 099a 82bd 0389 523d 88ae ff3d
000001d0: 2259 983d 336f b73d aca1 7f3d f7cf 363e
000001e0: 3971 43bd c19b d7bd 3569 333d b2d9 433e
000001f0: 8f6d d1bd 846e 763d 200e 503c c226 49bb
00000200: 5cc5 0dbb e34a 46bd 4086 dd3d 6460 37be
00000210: 8760 38bd 4299 07bd 40f2 4abd ae39 723d
00000220: 6463 fabc cf17 8bbd 37f7 18bd 8934 19be
00000230: eab8 ac3d a216 06bd d2ce 04be 3dca 94bd
00000240: abeb 77bd fa6b e2bd 8517 7cbd c913 e7bc
00000250: 024a 0d3e f628 4abc 00e9 5f3d 3e44 133e
00000260: 8d29 34bc 5859 2e3e 0352 103e 8c9e 293e
00000270: 763f 84bd 1965 8e3c 6a7d 14be e45c 683d
00000280: 5d1a 27bb 8fc5 103e 3cba bfbc 2886 083e
00000290: e705 70be 0408 fbbd b647 16bd 18bc 263e
000002a0: b586 213e fce5 ec3d 3481 8fbe f19d babb
000002b0: 812f 59be a56e 9cbd 93b1 cbbd e5c0 2c3e
000002c0: 5d46 2dbe 4c46 46bd 7b66 00be 65fd 143d
000002d0: ff42 173c f5bd 8a3b 1340 62bb 88f7 48bc
000002e0: b46b a2bd 5dc1 493c 0773 b7bc 50ca 67bc
000002f0: 410f 36bd 7e78 313e ad18 2cbd 6c35 083d
00000300: 39b3 17be bc01 cbbc 1c45 0a3e e6f0 adbb
00000310: c4a5 b43d ded2 bc3c 9906 85bd 3c7d ea3c
00000320: 4a0e f93d 0302 103e 4e0c f8bc dfed 123e
00000330: 0676 8cbc 4be0 a5bd 9e0e 433d a419 d13a
00000340: efad a03c b51d 313e 4a2f a53d e62b 0ebc
00000350: 7a41 07bd d65d 33be 48ae f33d f694 943c
00000360: 61d2 bebd b4e3 c4bd e984 02bd 192e bf3c
00000370: 748f e73c e0af a4bb 83a0 70bd 124d c93d
00000380: d27d 493d 51a1 89bd 5633 d9bd 4bbe d3bd
00000390: 4884 01bd 6704 053e cb70 243d 9e86 66bd
000003a0: 874e 0fba 7623 67bd 86f7 81bc 8b8a 9bbd
000003b0: a76b 81bb 9609 9c3d cceb 10be 36f7 68bc
000003c0: 251a 48be ee23 6f3d 87e0 63bd cbd0 08be
000003d0: 4903 a9bd 415c cfbd 60f2 86bd 6619 29be
000003e0: c63a 893d 1647 c23d 8dc9 8fbd adb8 46be
000003f0: 3367 de3d d933 a1bd 29cc afbb e18b e43c
0.011240472 0.04758268 -0.13497493 0.17282243 0.062603585 0.049106177 0.047599442 -0.058558464
0.032461602 0.06862421 0.043375347 0.15171593 -0.096109256 0.01830929 0.10095065 0.08182665
0.030673841 0.11190383 0.05700522 0.038761742 -0.1398468 -0.00060272217 -0.06602952 -0.122803956
0.008658444 -0.1933246 -0.11511739 -0.16238542 0.08489726 -0.020959087 0.13312797 -0.07089453
-0.00015399663 -0.14198412 0.029701313 -0.13176915 0.20861974 0.11897712 0.041343126 -0.15762551
-0.14633024 -0.1239105 0.2995523 0.015666904 0.21087867 0.07257945 0.09694837 -0.14392705
0.14344563 0.02943203 0.1185604 -0.041821014 -0.022228712 0.015205528 -0.0069379983 -0.010147762
0.07699126 -0.021867 0.017331865 -0.0063123093 0.054696757 -0.16860089 0.066100046 -0.032381445
0.15601362 0.018246895 -0.1284718 -0.009684411 -0.0693685 -0.0204906 0.06777342 -0.032430127
-0.12259015 -0.13204437 0.037181877 -0.15034372 0.010732263 0.09293712 -0.05031891 -0.01596969
-0.0012116703 -0.16893467 -0.06332889 0.020627854 0.041782394 0.15155435 -0.1121115 -0.002469304
0.07417141 0.06452803 0.043646343 -0.02781465 -0.015849188 0.019743258 0.06626921 -0.12025012
-0.041938465 0.076834284 0.1075647 0.09925338 0.038418595 -0.114200324 -0.032565586 0.053942256
0.01864154 0.04447199 0.03419057 0.07150145 0.0073036207 -0.054591622 0.14568116 0.02959729
0.20400722 -0.06377036 0.051400196 0.12484461 0.07438876 0.089567564 0.06241004 0.1785277
-0.0477154 -0.105277546 0.043801505 0.19126013 -0.10225975 0.06016399 0.01269868 -0.0030693267
-0.0021632528 -0.04841126 0.10816622 -0.17907864 -0.04501393 -0.033105142 -0.049547434 0.05913704
-0.030564971 -0.067916505 -0.037345137 -0.14961447 0.08433707 -0.032736428 -0.1296952 -0.072651364
-0.060527485 -0.11055751 -0.061545867 -0.028207676 0.13797763 -0.012338867 0.054665565 0.14381501
-0.010996235 0.1702627 0.14093785 0.16564387 -0.06457417 0.017382191 -0.14500967 0.056729212
-0.0025497891 0.14137863 -0.023404233 0.13332427 -0.23439752 -0.12257388 -0.036689483 0.1628269
0.15774043 0.115673035 -0.28028262 -0.0056950976 -0.21209528 -0.07638291 -0.09945979 0.16870458
-0.16921373 -0.048406884 -0.12539093 0.03637447 0.009232282 0.0042340704 -0.0034523054 -0.012266047
-0.07930699 0.012314168 -0.022393716 -0.014147356 -0.04444814 0.1733112 -0.04201572 0.033254072
-0.14814462 -0.0247811 0.13502926 -0.0053082583 0.0882068 0.023049768 -0.06495399 0.02862417
0.121609285 0.14063267 -0.030279305 0.14348553 -0.017146122 -0.08099421 0.047621362 0.0015953076
0.019614188 0.17296489 0.0806566 -0.008677458 -0.033021428 -0.17516264 0.11898476 0.018137436
-0.0931747 -0.096137434 -0.031865034 0.02333741 0.028266646 -0.0050258487 -0.058746826 0.09829153
0.049192257 -0.06720222 -0.10605495 -0.1033903 -0.031620294 0.1298996 0.04014663 -0.056280725
-0.00054667186 -0.056430303 -0.015865099 -0.07594784 -0.0039496007 0.07619016 -0.1415245 -0.014219096
-0.19541223 0.058383875 -0.055634048 -0.13360898 -0.0825258 -0.10125018 -0.06589198 -0.16513595
0.06700663 0.09486215 -0.07020865 -0.19406386 0.108595274 -0.07871217 -0.005364914 0.02789873

action_model._discrete_distribution.branches.0.bias f4 [2]
00000000: 1e70 1aba 4777 1a3a
-0.00058913406 0.00058924075

action_model._discrete_distribution.branches.1.weight f4 [3, 128]
00000000: e88f 02be f103 abbd ecd5 4dbd 0e0f 693d
00000010: cd15 7b3c 62db 3fbd c4c4 623d 8e70 bebb
00000020: 2fa5 3d3d 72dd 873d 6995 853d faaa 593d
00000030: 890c 9dbd cd2f 72bd 15cf 683c 626b d33c
00000040: 53ac 373c 0d49 79bd 17d1 12bd b5af 18bd
00000050: eb24 c4bc 10d5 dc3c 1977 da3c ee32 40bd
00000060: 31d8 46bd bcd9 e23b ad08 a6bc f60e 74bd
00000070: a3c7 45bc 59f3 ae3c ee5a 873d d7b2 db3c
00000080: e1bb da3c 1c45 073d 6b2c 95bc e47f 363d
00000090: 19d0 3e3d bbab 643d ed66 ce3c 6535 333d
000000a0: e333 c33b 23d6 3d3c ce83 81bc 0c4a 733d
000000b0: 8926 c93d 9d8d 303d 2b43 00ba 2b6f 5d3d
000000c0: 030a 243d 136c e03d 85be 673d 2e85 48bd
000000d0: 2fa7 54bd 67ea a3bc f607 223d a239 aebd
000000e0: 7f3e a1bd 3a22 84bb 7673 ebbc ed1f ba3c
000000f0: 8717 c63d 4303 aebc 9c4c 92bc e765 d9bd
00000100: b005 253d 4ac6 7ebd 1469 a7bc 54ec 36bd
00000110: e3cd 123d 992a 9fbd d915 403d 9aee 0d3d
00000120: 6bff 78bd 7030 11bd 30d5 543d 40db f4bd
00000130: 9ae0 9bbc b8a0 cdbc f102 b0bd 8495 a0bc
00000140: ee72 973c 0a73 603c d493 1a3d cc9c 37ba
00000150: 859e 13bc ad97 553d 1999 f63c 5fca a4bd
00000160: 0b09 5ebc 2e91 c43d 6ae5 16bd 27df 1d3d
00000170: 50ea 5f3d accb a03d 3141 2c3d 6c85 dabd
00000180: 7500 d2bd 625a 673d 5029 d83c bc36 a13d
00000190: 64ad 05bc 0a7c 3abc b064 993d 7f18 913c
000001a0: 7d85 c03b ffac 57bd 7d30 84bd 2d69 533d
000001b0: 91fe 83bd c2e2 153d 736f 793d ab2b 9b3d
000001c0: aef1 b43d 91ec 483c 5074 923c dc89 823d
000001d0: 556c 463d c487 633a fa50 4f3d 893a ae3d
000001e0: 4f8c 8ebc c177 edbd b285 85bd 6159 8c3d
000001f0: 84f8 2c3d aa99 6abd d067 c93c 2730 55bd
00000200: de55 85bd 1df0 653e 88dc 95bd 58bb 27be
00000210: 202d 69be 7b0f 4f3e f702 82be bf22 003e
00000220: 551b 2dbe 7d7c 0a3d 88a4 67be 9b5f 0cbe
00000230: 1243 d3bd 259d b7bd f49f debd 3ef5 813d
00000240: bc47 e83d 0ea8 01bd b98e 17be 568e 71be
00000250: 8776 3abd 82c3 55be 7357 0e3e b7ef 99bd
00000260: 5159 53be 7642 b63b 2609 a3bd 6266 bebc
00000270: d1d1 24be 4195 18be 077b efbd 880b 203e
00000280: 3c46 67be fb7f 3d3d 328f 553e 4051 a13c
00000290: 647a 86bd f445 e8bd 57ad 8abe 264a c7bb
000002a0: 2775 2b3c 95ee aa3d 1c44 963c fc5c 47bd
000002b0: cc4e 8dbd 3590 dd3d 760f 173e da68 a83d
000002c0: a4d5 f8bc a993 79bd 1b4d 1ebe 28ed 8d3d
000002d0: 7107 73be 4ea8 4dbe 74f4 153e f175 693c
000002e0: a402 b3bd 6a6c 093e aaae 5dbe cd3d 1fbe
000002f0: 6471 8bbd 3b2a 253c fd29 583e 2204 a0bd
00000300: 391b e7bd 2aed 0b3c e214 a83d efd8 13be
00000310: 1ebb fd3d 13ce 28be 3940 89bc aa12 193e
00000320: 3949 33bb 0a2b 283d 03dc 093e 6371 88bc
00000330: a3cb 233e 9f33 263d e047 323d a573 55be
00000340: 66a0 563d bdfa 523d 4875 183e 7601 2c3e
00000350: 193b 063d 7c7e 9ebd 8cf9 af3c bfdf b43d
00000360: 928d dd3d 3885 83bc 18a5 133e c288 c43d
00000370: aa20 0cbc d7cf 1dbe 9e05 58be e0eb 883c
00000380: d895 98ba f181 dfbd 5e78 40be b62f debd
00000390: 51b6 493e 9159 1e3e 24ba a13d e9cb c63d
000003a0: 5eb4 293e 27c3 7bbe 2e45 bd3d a428 85be
000003b0: 8f94 973d de79 7d3d 3114 76bd 8c00 3e3d
000003c0: cdcb 0bbd 33ff de3d 49ce fd3d 97d5 4fbd
000003d0: aa87 ae3d 49b3 75be 4f85 e93d bc77 26bd
000003e0: 08d5 3c3e b9c2 7ebd b908 243e e284 91bb
000003f0: 15f3 e03d 369f 3a3d 364c 363e 58f0 413e
-0.12750208 -0.08350361 -0.05025284 0.056899123 0.015325022 -0.04684008 0.05536343 -0.0058117574
0.04630011 0.06634034 0.06522638 0.05314157 -0.076684065 -0.059127618 0.014209528 0.02580804
0.011210519 -0.060860682 -0.035843935 -0.037276942 -0.023943385 0.026957065 0.026668118 -0.04692357
-0.04854602 0.0069229286 -0.020267809 -0.05958458 -0.012071523 0.021356272 0.0660914 0.026818676
0.026700916 0.033024892 -0.018209657 0.04455556 0.046585176 0.055827837 0.025195563 0.043752093
0.005957113 0.011586699 -0.01580992 0.05939679 0.09821803 0.043103803 -0.00048928213 0.054061096
0.04004861 0.109581135 0.056578178 -0.048955135 -0.05191725 -0.020009233 0.039558373 -0.08507086
-0.07873248 -0.0040324004 -0.02874158 0.022720302 0.09672456 -0.02124179 -0.017858796 -0.106151395
0.040288627 -0.062200822 -0.020435847 -0.044658974 0.03584088 -0.07771797 0.046895836 0.034651376
-0.06079046 -0.035446584 0.051961124 -0.11955881 -0.019027997 -0.02510105 -0.08594311 -0.019602545
0.01848742 0.013699302 0.037738636 -0.00070042606 -0.009009962 0.052146602 0.0301023 -0.08046412
-0.013551961 0.09598003 -0.03683988 0.038542893 0.054666817 0.07851347 0.04205436 -0.106699795
-0.102539934 0.05648268 0.026386887 0.07871768 -0.008159015 -0.011382112 0.07489908 0.017711876
0.005875288 -0.052655216 -0.06454561 0.051613975 -0.06445039 0.036593206 0.060897302 0.075766884
0.08835159 0.012263433 0.017877728 0.06373951 0.048443157 0.00086795934 0.050614335 0.085072584
-0.017400889 -0.11595107 -0.06519641 0.06852985 0.04222919 -0.05727545 0.024585634 -0.052047875
-0.065105185 0.22454877 -0.073174536 -0.1638006 -0.2277112 0.20220749 -0.25392887 0.12513255
-0.16904958 0.033810128 -0.22621357 -0.13708346 -0.10315527 -0.0896552 -0.108703524 0.06345604
0.11341807 -0.03165441 -0.14800538 -0.23589453 -0.045523193 -0.20875362 0.13900547 -0.07516425
-0.2063954 0.005562122 -0.07960729 -0.02324218 -0.16095664 -0.14900686 -0.116933875 0.15629399
-0.22585386 0.04626463 0.20855406 0.019692063 -0.06566313 -0.113414675 -0.27085373 -0.006081837
0.010464943 0.08346287 0.018343024 -0.04867266 -0.06899795 0.10818521 0.14751992 0.08223124
-0.03037531 -0.060931835 -0.15459101 0.069299996 -0.23733307 -0.20083734 0.14644033 0.014249311
-0.08740738 0.13420263 -0.2164866 -0.15550919 -0.06808737 0.010080869 0.21109767 -0.07813288
-0.11284489 0.008540431 0.08207108 -0.14438222 0.123892054 -0.16484861 -0.016754257 0.14948526
-0.0027356877 0.04105667 0.13462834 -0.01665563 0.1599565 0.040576573 0.043525577 -0.20844896
0.05239906 0.051508654 0.14888489 0.16797432 0.032771204 -0.07738969 0.021481298 0.08831739
0.10818018 -0.016054735 0.14418447 0.09596397 -0.00855271 -0.15411316 -0.21095893 0.016714036
-0.0011641337 -0.10913456 -0.18795916 -0.10848944 0.19698454 0.15463854 0.07896832 0.097068615
0.16572711 -0.24586163 0.092417106 -0.2600757 0.07401382 0.0618838 -0.06007785 0.04638724
-0.034129906 0.10888519 0.123928614 -0.050740805 0.085219696 -0.23994173 0.1140238 -0.04064153
0.1844064 -0.06219742 0.16018952 -0.0044408897 0.10983864 0.04556199 0.1780251 0.1893934

action_model._discrete_distribution.branches.1.bias f4 [3]
00000000: 15d4 5b3d 3650 73bd b26b 74ba
0.053669054 -0.059402667 -0.0009323909
